pytorch_onnx/models/model1_d.onnx (onnx, 249491 bytes, 10 tensors)

conv1.bias f4 [6]
000000 20 9d fa 3c 28 99 be 3c a0 af c5 3c f4 86 7a bd
       0.030592501 0.02326639 0.024131596 -0.061163858
000010 ae de 9e 3d f6 e3 bb bd
       0.077573165 -0.091743395

conv1.weight f4 [6, 3, 5, 5]
000000 48 d8 16 3d 00 5f c9 3d e8 a0 65 3d 82 c3 33 bd
       0.036827356 0.09832573 0.056061655 -0.043887623
000010 97 e6 e9 bd f0 fc 8f bb 26 0f de bd 08 5f 4b 3d
       -0.11420935 -0.004394166 -0.10842733 0.049651176
000020 60 f1 26 bc 58 07 b1 3c 03 fd d3 bd e0 cd 31 3d
       -0.010189384 0.021609947 -0.103509925 0.04340923
000030 2c 3c 42 bd ba 7f be 3d 72 7d a9 3d cc e9 b1 3d
       -0.047420666 0.09301706 0.0827588 0.08687171
000040 88 b8 30 bc ea c9 e2 3d 52 b3 48 bd 08 29 97 3c
       -0.010786183 0.11073668 -0.04899914 0.018452182
000050 06 4d ea 3d ec bc 34 bd 28 2b 9a 3d 95 83 88 bd
       0.11440472 -0.044125482 0.07527763 -0.06665722
000060 80 dc 7e 3d a4 0c 3f 3d b0 1a c0 3d 64 75 c6 3d
       0.062222004 0.046642914 0.0938009 0.09690359
000070 ae 8a bc 3d 08 99 ea 3d 14 48 63 3d f4 2f 59 3d
       0.092061386 0.1145497 0.05548866 0.053024247
000080 b4 f1 31 bd 63 3a bd bd 22 32 85 3d 8e 7f d5 bd
       -0.043443397 -0.09239652 0.06503703 -0.1042472
000090 74 05 bd 3d 56 fd c8 3d c4 ca 9d bd e0 5b b8 3c
       0.09229556 0.09813945 -0.0770469 0.022504747
0000a0 08 db fe 3c 11 81 6b bd c0 1c 71 3c 1c f7 26 3d
       0.031110302 -0.057496134 0.014716327 0.040763006
0000b0 d8 b6 19 3d b2 aa 92 3d 90 1d 81 bc 40 51 7c bc
       0.03752789 0.07161464 -0.015761167 -0.015400231
0000c0 b0 f3 4a 3c bb 15 ae bd 7c 99 d0 bd 94 f7 90 3d
       0.012387201 -0.085002385 -0.10185525 0.07078472
0000d0 54 e2 22 3d c0 10 ef 3c 70 3a c0 bb a4 08 a5 3d
       0.039766625 0.029182792 -0.0058663413 0.08058289
0000e0 99 03 b0 bd 08 45 c4 3d fc 13 54 3d 0f 18 dc bd
       -0.08594436 0.09583479 0.05177687 -0.10746776
0000f0 2e 94 ca 3d 8c 15 9b 3d c8 81 86 3c 08 0c 16 3d
       0.09891544 0.07572469 0.016419306 0.036632568
000100 40 4c d3 3c 56 01 db bd b0 0d 4a bd 40 fa 7a bc
       0.025793195 -0.10693614 -0.04932946 -0.015318453
000110 34 d2 d0 bd b0 fc 91 bb 73 d0 df bd 50 4f ed bc
       -0.10196343 -0.0044551715 -0.109284304 -0.028968483
000120 64 e2 3f bd b0 43 e6 bb 2e 0b c9 bd f8 8a 1b 3d
       -0.046846762 -0.007027112 -0.098165855 0.037974328
000130 73 73 a7 bd 24 0b 3a bd 5c 87 be 3d 58 40 9c 3c
       -0.08176317 -0.04542078 0.093031615 0.01907365
000140 20 33 c5 3d c8 c0 38 3d a0 c1 dd bd b4 75 ee bc
       0.09628892 0.045105726 -0.10827947 -0.02910886
000150 0a ab c3 bd e4 e6 4f bd ab 31 86 bd 64 ac 9c 3d
       -0.095541075 -0.050757304 -0.06552442 0.076500684
000160 b8 89 d6 bc 38 48 95 3c 9c 4a c0 bc ec 01 e4 3d
       -0.026188716 0.018222913 -0.023473077 0.11133179
000170 74 16 45 bd 20 b9 80 bd 44 29 24 3d 68 78 fd 3c
       -0.048117116 -0.0628531 0.040078416 0.030941203
000180 f0 98 87 3c 6a e8 ac 3d fa 8c a9 bd b0 19 f3 3c
       0.016552418 0.08442767 -0.08278842 0.029675335
000190 e4 4e 01 3d 7c 40 77 3d 50 45 5a 3d 44 af e3 bc
       0.031569377 0.06036423 0.053288758 -0.027793534
0001a0 a0 8f 64 3d 0d 9d eb bd 68 95 49 3d 6c 3f ac bc
       0.055801034 -0.115045644 0.04921475 -0.021026336
0001b0 b8 0f 9d bd 90 81 c0 3d 50 f0 61 3d 5e ee 88 bd
       -0.07669014 0.09399712 0.05516082 -0.0668609
0001c0 6e ca c1 3d 54 e3 82 3d b0 ef 31 3d c4 92 3b 3d
       0.094624385 0.06391016 0.043441474 0.045794263
0001d0 aa b6 80 bd d2 0f 60 bd d4 94 d2 3d a0 1c 64 3d
       -0.062848404 -0.054702587 0.10282293 0.05569136
0001e0 00 98 26 b9 d0 2c 5d bd 12 bd bc 3d f6 42 d3 bd
       -0.00015887618 -0.053997815 0.0921575 -0.10315506
0001f0 a0 de 98 3d 10 01 87 bd fc 81 99 3d d8 ce e5 bd
       0.07464337 -0.065919995 0.07495496 -0.11221093
000200 80 c0 2b bc cc 99 35 3d 8a 1c b7 3d 97 85 6d bd
       -0.010482907 0.044336125 0.0894099 -0.05798873
000210 fa d9 15 bd 2c 47 22 3d 58 39 b9 bc f2 19 b4 bd
       -0.03658483 0.039618656 -0.022610351 -0.08794011
000220 b0 97 cb 3b e6 ac c5 3d e2 57 c1 bd 82 81 d1 bd
       0.006213151 0.096521184 -0.094405904 -0.1022978
000230 37 b8 d2 bd 0e a0 e9 3d c8 68 bb bd 46 f9 89 3d
       -0.102890424 0.11407481 -0.09150845 0.06736998
000240 90 9b 35 bd 98 ab 8b 3d 9c 10 26 3d 5c d4 17 bd
       -0.04433781 0.06819838 0.040543184 -0.037067756
000250 0c 52 63 3d 18 8d 4c bc 70 52 ca bd eb 13 84 bd
       0.055498168 -0.012484811 -0.09879005 -0.064491116
000260 68 a2 46 3d 38 e6 91 3d 5e 5f 6e bd e0 ac 8f bc
       0.048494726 0.07123989 -0.058196418 -0.017538488
000270 40 05 e6 3c 3c 11 b0 3d a8 40 be 3d 90 0a a0 3d
       0.028078675 0.08597037 0.09289676 0.07814515
000280 6e dd a7 bd 20 ac 45 bc 6c 0c cd bc 92 0e 9a bd
       -0.08196531 -0.012064964 -0.025030337 -0.0752231
000290 40 26 20 bd 50 c5 e5 3d 50 bd 40 3d 76 1e e6 3d
       -0.039098978 0.11219275 0.047055542 0.11236279
0002a0 9a ca d1 3d ea b5 d5 bd ec bf 04 3d 59 fa bd bd
       0.10243721 -0.10435088 0.032409593 -0.09276266
0002b0 e0 b7 52 3c 90 2b bc 3d b2 cd 91 3d f6 d1 13 bd
       0.012861222 0.091879964 0.071193114 -0.036088906
0002c0 b0 3e bc 3c a8 9e b4 bc 34 1f 8b bd d4 c1 b4 bd
       0.02297911 -0.02204831 -0.06793061 -0.08826032
0002d0 50 38 09 bd 34 a5 32 3d f8 30 45 bc b2 88 81 bd
       -0.03350097 0.04361458 -0.012035601 -0.06324901
0002e0 77 0b ad bd ba 04 e4 3d 68 64 c8 3c ce cd 68 bd
       -0.08449452 0.11133714 0.02446194 -0.056836896
0002f0 01 55 d3 bd fa 17 a3 3d 54 ed 26 3d 40 55 e7 3c
       -0.103189476 0.079635575 0.040753677 0.028238893
000300 30 1f fb 3c 0a 78 ad 3d 08 39 c9 3d c1 3a e7 bd
       0.03065452 0.08470161 0.09825331 -0.11290503
000310 e4 a1 1b 3d b4 23 71 bd fa fb 82 bd 20 27 e9 3d
       0.037996188 -0.05887194 -0.06395717 0.113844156
000320 a6 cd de 3d 44 55 96 bd dc 12 bc bc 30 4d 2f 3c
       0.10879068 -0.07340482 -0.022958212 0.010699555
000330 7c 43 05 bd 18 bb 47 bd b2 ac bd 3d 3e 1a 07 bd
       -0.03253506 -0.04876241 0.09261455 -0.03298401
000340 b0 3d 54 3c de 68 cd 3d c0 7f d8 bb a4 d3 c9 3d
       0.012954161 0.100297675 -0.006607026 0.0985482
000350 f4 a3 9d 3d 8e 17 cb 3d f4 17 e9 3d e4 fc 5f 3d
       0.07697287 0.09916602 0.11381522 0.054684535
000360 00 d6 45 3c b8 f7 b6 3d 8e f0 74 bd 90 b7 17 bc
       0.012074947 0.08933967 -0.059799723 -0.009260073
000370 c1 dd 6c bd 04 d0 77 3d 60 af e3 bd 10 27 18 3c
       -0.05782867 0.060501114 -0.111174345 0.009286657
000380 e8 32 49 3d 12 f9 b3 bd 4e f1 55 bd a0 67 af 3b
       0.049120814 -0.08787741 -0.05223208 0.0053529292
000390 c0 d3 82 bb 3c 32 e3 bd af 7d 62 bd 1c c3 87 bd
       -0.0039925277 -0.11093566 -0.055295642 -0.06629011
0003a0 88 97 0e 3d 70 f7 0d 3c 24 fe 90 3d 70 ec 15 bd
       0.03481248 0.008664951 0.070797235 -0.036602437
0003b0 00 7d 58 bb 06 88 e1 3d 1c 8e f2 bc 4a 8a 6f bd
       -0.003303349 0.110122725 -0.029608779 -0.058481492
0003c0 c0 1c 56 3d 1a 4c 26 bd 14 bf a5 bd cc ab 56 3d
       0.052273512 -0.04059992 -0.08093086 0.052409932
0003d0 fc 54 8e bd aa f3 dc 3d 56 41 a7 3d 78 24 73 3d
       -0.06949803 0.10788663 0.08166759 0.05936095
0003e0 58 06 3d 3d 50 ea be 3c 20 22 e7 3d b6 39 97 bd
       0.046148628 0.023305088 0.11285806 -0.07384054
0003f0 c8 3a 32 bc 68 6a 0a bc c0 f7 bd ba f8 ca 94 3c
       -0.010878272 -0.008448221 -0.0014493391 0.01816319

conv2.bias f4 [16]
000000 08 15 2b 3c c0 0b 1c 3b 60 fd fb 3b ce 7f 83 3d
       0.010442026 0.0023810714 0.0076901168 0.06420861
000010 a6 eb a2 3d da aa a0 bd 88 21 d2 bc d8 54 12 3d
       0.079551026 -0.07845087 -0.025650755 0.035725445
000020 3e 40 af bc 28 9a 21 bc 10 95 ae 3b a0 b7 4c bc
       -0.021392938 -0.009863414 0.005327828 -0.0124949515
000030 20 eb 9b 3c 60 fa b8 bb 08 d7 ef bc 40 b5 88 3d
       0.019033015 -0.0056450814 -0.02927734 0.06675196

conv2.weight f4 [16, 6, 5, 5]
000000 63 63 8f bd 30 92 5a 3d 00 c4 53 bb 80 d5 66 3b
       -0.070013784 0.05336207 -0.003231287 0.003522247
000010 b8 1a 7d bc 78 18 e6 3c ea e8 a0 3d bc 77 62 3d
       -0.015448265 0.02808784 0.07856925 0.05528997
000020 28 bb 83 bd 90 5e ed 3c 38 2e ac bc f0 76 a9 bb
       -0.064321816 0.028975755 -0.021018133 -0.005171649
000030 78 f5 32 bc 8a ee 8f bd 3c b3 39 3d 46 ac 83 3d
       -0.010922782 -0.070279196 0.045336947 0.06429343
000040 1c 80 cb 3c 00 ac dc ba 00 c3 82 3d c6 59 90 bd
       0.02484136 -0.0016835928 0.063848495 -0.07048373
000050 be 1c a8 bc d8 57 31 bd cc 57 c9 3c 78 34 30 bc
       -0.020521518 -0.043296665 0.024577998 -0.010754697
000060 5a 63 9a bd fc 1c 41 3d a3 72 1f bd f4 cb 83 3c
       -0.07538481 0.047146782 -0.038927685 0.016088463
000070 78 dd 84 3d 80 4f 6f ba 5c 72 72 3d 50 bd 4e bc
       0.06487554 -0.0009128973 0.059191093 -0.012618378
000080 98 9f 4e bc 46 0d 97 bd 74 b8 9d 3d a0 74 26 bb
       -0.012611292 -0.073755786 0.07701197 -0.0025399104
000090 fa 3f a5 bd d3 da 75 bd a9 de 32 bd 58 ae f3 bc
       -0.08068843 -0.06002314 -0.043669377 -0.02974622
0000a0 c8 eb 9e 3d ab 5a 93 bd 2c 76 07 bd b0 ca 2e 3d
       0.077598155 -0.07195028 -0.03307168 0.042673767
0000b0 ef 42 3f bd 88 5f 54 3c 47 70 73 bd ac e2 81 bd
       -0.046694692 0.01296223 -0.059433248 -0.06342062
0000c0 a8 24 d7 3c 04 12 8a bd f4 bd 98 3d aa 62 8f 3d
       0.026262596 -0.067417175 0.07458106 0.070012406
0000d0 17 f1 30 bd 80 94 b4 3c c0 39 5a bc d8 6c aa bc
       -0.04319867 0.022043467 -0.013319433 -0.020803854
0000e0 7c 96 4d bd 60 51 89 bd c2 1a 61 bd dd 6c 44 bd
       -0.05019234 -0.06704974 -0.05495716 -0.047955383
0000f0 7b 5e 51 bd 54 bf 5c 3d b4 6e 99 3d 14 6b e7 bc
       -0.051115494 0.053893402 0.07491818 -0.028249301
000100 54 8c 86 bd 00 7e 53 3b f8 8b 45 bc f1 a2 4c bd
       -0.06569734 0.0032271147 -0.012057297 -0.04996008
000110 30 18 e0 bb 5a 81 34 bd ba a0 13 3d fb 71 a2 bd
       -0.006838821 -0.04406867 0.036041953 -0.07931896
000120 8c a7 5b 3d 7c 17 b1 3c a9 ce 5b bd 68 48 81 3d
       0.053626582 0.021617644 -0.053663883 0.063126385
000130 12 06 e2 bc 1e a3 54 bd 64 90 12 3d 0f 51 95 bd
       -0.027590785 -0.051913373 0.035782233 -0.07290851
000140 80 43 b7 3a 68 09 d2 3c 60 5e 8d bc 00 e7 ae 39
       0.0013981909 0.02563925 -0.017256916 0.00033359975
000150 e4 d4 47 bd f1 aa 9c bd 5c dc 89 3d d4 70 85 bd
       -0.048787013 -0.07649792 0.06731483 -0.06515661
000160 e7 6e 43 bd bf 7a 30 bd 84 cc e8 bc c0 12 a8 3b
       -0.047713187 -0.04308581 -0.028417833 0.0051291883
000170 de 24 0e 3d ec 5d dd 3c 64 9b 49 3d 54 9e 7f 3d
       0.034703128 0.027022325 0.049220458 0.062406853
000180 33 7b a6 bd 3c b5 5d 3d 9c d0 67 3d 70 63 1c bc
       -0.08128967 0.054127917 0.05659543 -0.009545192
000190 11 ff 98 bd a1 37 2a bd 9c 94 40 3d 1d 0b a1 bd
       -0.07470525 -0.041556958 0.047016725 -0.07863448
0001a0 9e 41 01 bd a0 8f a2 3b 48 a6 dc 3c ed dc 44 bd
       -0.031556718 0.004960969 0.026934758 -0.048062254
0001b0 c7 b6 1d bd 18 ce 4d 3d a0 11 7f 3d b4 21 a5 3d
       -0.03850439 0.050245374 0.062272668 0.08063069
0001c0 dc 63 e8 bc 50 f6 b7 bb 0c c2 56 bd f6 f2 2e bd
       -0.02836793 -0.0056140795 -0.05243115 -0.042712174
0001d0 bb 9c 1d bd 12 f2 95 3d 04 d3 e5 3c bc bb f5 3c
       -0.038479548 0.07321562 0.028054722 0.029996745
0001e0 4c 74 be 3c 8c 4a 8a bd 1f 21 2e bd d0 b3 36 3c
       0.023248814 -0.067525 -0.042512055 0.011151269
0001f0 e7 42 89 bd 80 f5 cc 3a 6c df ff 3c d8 81 2e 3d
       -0.06702214 0.001563713 0.031234466 0.042604297
000200 c0 c8 31 3d 40 cb 9c 3d 71 bc 40 bd 94 19 d2 3c
       0.04340434 0.07655954 -0.04705471 0.025646962
000210 a4 4e a3 3d a8 f7 5b 3d 2c 94 e4 3c 32 ba 02 bd
       0.07973984 0.05370298 0.027902685 -0.03191585
000220 28 81 93 bd 6e 87 88 bd 70 b0 57 3c 00 4b 60 bd
       -0.07202369 -0.06666456 0.013164625 -0.054759026
000230 14 0f b9 3c f2 57 a6 bd a0 44 5a 3d cc 2d 0f bd
       0.022590198 -0.08122243 0.053288102 -0.034955785
000240 c0 73 1d 3d e0 03 8f 3d fc 58 ed bc 98 01 2c bc
       0.038440466 0.06983161 -0.028973095 -0.010498427
000250 20 d1 93 3d a9 15 02 bd 25 c7 43 bd 34 15 a5 3d
       0.07217622 -0.031758938 -0.04779734 0.08060685
000260 d6 c6 19 3d 90 23 cc bc 2e 4b 8a 3d e8 a6 4a 3d
       0.03754314 -0.024919301 0.06752621 0.04947558
000270 6a bc a0 3d b7 09 89 bd 2c 21 e4 3c a4 b5 3a 3d
       0.07848437 -0.06691306 0.027847849 0.045583382
000280 ac 7c a5 3d 5a 7a 98 bd 94 c2 56 3d 40 82 c7 3b
       0.0808042 -0.07445212 0.052431658 0.006088525
000290 0e 74 b9 bc 92 7c d0 bc 74 7d dc 3c 05 d5 9f bd
       -0.022638347 -0.025450025 0.02691529 -0.07804302
0002a0 28 eb 95 3d a8 52 07 3c f0 87 4c bd b4 6a 15 bd
       0.07320243 0.008259453 -0.049934328 -0.036478713
0002b0 80 12 b8 bb 48 ab 20 bd e8 c4 0d 3d c7 b2 0c bd
       -0.0056174397 -0.039225847 0.034611613 -0.034350183
0002c0 2c a0 33 3d 60 ed 05 3b b4 70 35 3d f0 aa 11 3c
       0.043853924 0.0020435676 0.044296935 0.008890852
0002d0 aa a3 5b bd b0 44 4e 3c be 72 21 3d b0 4d 7b 3d
       -0.05362288 0.012589619 0.039416067 0.061353385
0002e0 54 e0 a2 bd 8a e2 d6 bc 02 ab c3 bc 2c d5 4d 3d
       -0.079529434 -0.02623107 -0.023885254 0.050252125
0002f0 96 3d 98 bd 7e a7 0c 3d 10 e5 97 3b f4 65 bd bc
       -0.074336216 0.03433942 0.0046354607 -0.023119904
000300 00 49 d5 3b 2a 89 3f bd 14 79 73 3d 40 69 4f 3d
       0.0065089464 -0.04676167 0.05944164 0.050637484
000310 78 fe 7c bd 22 60 06 3d 0f 36 5c bd 74 7c 31 bd
       -0.061766118 0.032806523 -0.05376249 -0.04333158
000320 36 87 f8 bc e0 d6 3e 3d 63 18 10 bd a0 c1 23 3c
       -0.030337911 0.04659164 -0.035179507 0.009994894
000330 de bf a3 3d 5f 91 1d bd 64 54 79 3d 94 2e 6a bd
       0.0799558 -0.038468715 0.060871497 -0.057173327
000340 ab b1 42 bd 70 70 85 3b 76 1c 33 bd 6e 72 5c bd
       -0.04753272 0.0040722415 -0.043728314 -0.053820066
000350 24 92 ed 3c 40 7b dc bc 98 3e 49 3d c4 c0 ff 3c
       0.02900035 -0.026914239 0.04913196 0.031219848
000360 80 5b e3 ba c0 22 2d 3b 63 db 2f bd c6 07 2c 3d
       -0.0017345995 0.0026418418 -0.042933833 0.0419996
000370 7c 00 79 3d 1e 6b 18 bd c0 61 da ba c0 38 4e bc
       0.060791478 -0.03721153 -0.0016661212 -0.012586772
000380 14 41 76 bd 73 f9 61 bd bc b0 f0 3c 12 da 37 bd
       -0.060120657 -0.055169534 0.029381149 -0.044885702
000390 bc 81 48 bd 6d 4d 6b bd 17 8d 2c bd 30 2e 06 3c
       -0.04895185 -0.057446886 -0.04212674 0.008189723
0003a0 0e a3 66 bd 08 6e a9 bc c4 39 e3 3c 58 a4 29 bd
       -0.056307845 -0.02068235 0.027737506 -0.041416496
0003b0 c8 cc f5 3c 0e 5d 17 3d d0 7f 0f 3d 78 a6 7f bd
       0.030004874 0.03695398 0.035034 -0.062414616
0003c0 3c 24 49 bd b1 77 8a bd 60 d6 02 3d 9c 25 9c bd
       -0.04910682 -0.067611106 0.031942725 -0.07624361
0003d0 0c db 6d 3d 0d b5 79 bd 54 ef 43 3d 20 b5 e8 3b
       0.058070228 -0.06096368 0.047835663 0.00710167
0003e0 dd 69 26 bd a0 a4 7c 3d 52 16 11 bd 44 4b 8b 3d
       -0.040628303 0.061680436 -0.035421677 0.06801465
0003f0 c0 c3 6a 3c c5 9f 12 bd b4 07 a4 3c d4 e9 83 bc
       0.014328897 -0.0357969 0.020023204 -0.016102709

fc1.bias f4 [120]
000000 ba b1 1e bd 80 1d 98 b9 3d 30 bb bc 60 11 b9 3a
       -0.038743712 -0.00029013678 -0.02285015 0.0014119558
000010 59 59 04 3d b5 59 28 bd d7 4a 3c 3d 5d 02 37 3d
       0.03231177 -0.041101176 0.04596981 0.04467999
000020 74 37 85 bc 54 cb 05 bc 03 f8 21 bd 48 92 2d bd
       -0.016261794 -0.008166153 -0.039543163 -0.042375833
000030 14 87 0a bc f6 f5 eb 3c 47 30 dd bc b5 d6 1f bd
       -0.008455057 0.028803807 -0.02700056 -0.03902312
000040 10 a5 80 bb 02 8c f8 3c 1a a3 ec bc 7b c5 49 bd
       -0.003925927 0.030340198 -0.028886367 -0.049260598
000050 1e ef 26 bd e8 9e 43 3c f3 74 04 3d a7 de 48 bd
       -0.040755384 0.011939742 0.032338094 -0.049040463
000060 2b 1c 10 3d 98 94 87 bb 65 d7 1b bd c3 71 21 3d
       0.035183113 -0.004137587 -0.038047213 0.039415132
000070 02 a9 21 bd 07 86 3f 3d 32 be 25 bd b5 45 11 bd
       -0.03946782 0.046758678 -0.040464588 -0.03546687
000080 92 b3 f7 3c aa ff e3 bc 22 8e 4b bd b5 0d 41 bd
       0.030236993 -0.027831871 -0.049696095 -0.047132213
000090 66 59 85 bc 52 d9 8f 3c 63 b7 ad bc 8e 59 c4 3c
       -0.01627798 0.017559681 -0.02120561 0.023968484
0000a0 c8 02 2f 3c 3f 0e 33 bd 60 78 3f 3c 10 e1 f2 bb
       0.010681815 -0.043714758 0.0116864145 -0.0074120834
0000b0 61 96 22 3d c2 39 fc 3c a0 b7 c9 ba 0b 91 23 3d
       0.039694194 0.03078926 -0.0015389808 0.039933246
0000c0 7b e4 44 bd 4d f8 9f bc c3 18 0f 3d 59 f3 41 3d
       -0.04806946 -0.019527579 0.034935724 0.047351215
0000d0 5b 94 3a bd 92 e2 ff 3c 82 7e d3 3c 70 34 c9 3b
       -0.04555164 0.031235967 0.02581716 0.0061402842
0000e0 87 13 9f bc 07 81 44 3d 2e 54 de 3c fa 09 d7 bc
       -0.019418491 0.047974613 0.02713975 -0.026249874
0000f0 b7 16 ef bc 17 07 ee bc 03 5d d7 bc 2a c5 c1 bc
       -0.029185636 -0.029056115 -0.026289469 -0.023653585
000100 1a 44 c0 3c 23 29 3d 3d 18 a2 14 bd 50 eb 79 bb
       0.023469973 0.04618181 -0.036287397 -0.0038134642
000110 80 85 3d bb 07 8c 46 3d 58 e3 35 bc 56 49 e0 3c
       -0.0028918684 0.048473384 -0.011101566 0.02737872
000120 d8 8e 11 bd 00 29 c1 bb 81 b2 10 3d b2 61 fe 3c
       -0.035536617 -0.00589478 0.035326485 0.031052444
000130 a0 ec 49 bb 85 5b 44 bd fc 28 53 3c 96 8a 95 3c
       -0.0030811206 -0.047938842 0.012888189 0.01825456
000140 4d c1 99 bc aa b5 aa 3c 00 ff 8f bc 30 99 56 bb
       -0.01876893 0.020838577 -0.017577648 -0.0032745115
000150 0a 7c b6 bc a2 53 3f bd 64 66 5c 3c 48 9d 18 bd
       -0.022275943 -0.046710618 0.013452146 -0.03725937
000160 c0 83 96 3a 47 6a 0c 3d 82 55 34 bd c9 08 0f 3d
       0.0011483356 0.03428104 -0.04402686 0.034920488
000170 8d ff a3 bc 60 da 11 3b a0 22 ad ba 13 df 13 3d
       -0.020019317 0.0022255406 -0.0013209172 0.036101412
000180 a0 86 8a bc 96 62 a7 3c 60 f8 cf bc be 24 a3 3c
       -0.016909897 0.020432752 -0.02538699 0.019914981
000190 a7 08 3a 3d d2 e8 fc 3c e0 3e 2f 3c a2 13 2e bd
       0.045418408 0.030872736 0.010696143 -0.042499192
0001a0 71 49 27 3d 20 87 a9 bc 34 62 69 3c 6c e9 2f 3c
       0.040841524 -0.020694315 0.014244605 0.010736804
0001b0 4a df 87 3c ea dc 2e bd ce ed a2 3c 18 b4 ee bb
       0.016585965 -0.04269115 0.019888785 -0.0072846524
0001c0 59 5e 02 3d 68 02 8a 3b e8 25 52 bc 13 99 f1 bc
       0.03182826 0.0042117126 -0.01282642 -0.029491937
0001d0 f5 8a 17 bd a2 c2 1f bd 85 2c 0f 3d 9a 1b ad 3c
       -0.036997754 -0.039003976 0.034954567 0.021131326

fc1.weight f4 [120, 400]
000000 e2 f2 b0 3c 42 a6 c6 3c e3 c5 1b bd 29 01 28 3d
       0.02160019 0.0242492 -0.038030516 0.04101673
000010 28 61 45 bc aa 97 bc 3c 10 b5 c1 bc 3d 39 02 3d
       -0.01204709 0.023021538 -0.023645908 0.031792868
000020 62 b6 9f 3c 2c c9 05 bd 00 20 18 b9 68 a4 48 bc
       0.019496147 -0.032662556 -0.0001450777 -0.012246229
000030 87 c3 b3 bc 78 b2 45 3c 28 79 02 bc 92 ab 13 bd
       -0.02194382 0.012066476 -0.007963456 -0.036052294
000040 b4 53 58 bc ad f1 13 bd 99 7c 36 3d b4 2f 09 3c
       -0.01320355 -0.03611915 0.04455242 0.00837319
000050 9d f8 39 bd 9d b3 c7 bc 30 31 24 bb e0 e9 55 bb
       -0.04540311 -0.024377638 -0.0025053732 -0.003264062
000060 fd 87 d4 bc 7e 4a 25 bd 5d ba 1c 3d 8a 7f ec bc
       -0.02594375 -0.040354244 0.038263667 -0.02886941
000070 0c b9 69 bc 2d 2c 46 3d ae c5 1b bd 75 bc 44 bd
       -0.01426531 0.048381973 -0.03803032 -0.04803129
000080 4c 79 03 bc ec 3d 70 3c ed 5f 4a bd 97 1f 33 bd
       -0.008024525 0.014663201 -0.04940789 -0.0437313
000090 a1 8b 43 3d b7 36 2e 3d a2 cf 2b bd d6 40 0c bd
       0.047740582 0.04253265 -0.04194606 -0.03424152
0000a0 66 9f 28 bd 5a ed b0 bc ec 62 97 bc b8 d1 11 bd
       -0.04116764 -0.021597553 -0.018479787 -0.035600394
0000b0 e7 a9 9e bc c6 d9 ca 3c f8 d2 14 bd 90 d4 f1 bb
       -0.019368125 0.024762046 -0.036334008 -0.0073800758
0000c0 6c d3 1e bc 60 46 df bc 00 bf 1f bb 12 0c 9c 3c
       -0.009693962 -0.027255237 -0.002437532 0.019048724
0000d0 68 8e c6 bb ca a9 b0 3c c2 96 c5 3c 33 79 05 3d
       -0.0060594566 0.021565337 0.024119738 0.032586288
0000e0 08 7f 34 bd a8 df 13 bc 83 02 06 3d 06 bd 1d bd
       -0.04406646 -0.009025492 0.03271724 -0.038510345
0000f0 d6 2f fd 3c ec 5b 01 bd 30 b0 32 3b 2e 37 99 3c
       0.030906599 -0.031581804 0.002726566 0.01870307
000100 d7 4a bd bc 0b 5b 19 3d c0 bf 69 bc 12 22 3e bd
       -0.023106975 0.03744034 -0.014266908 -0.04641921
000110 f4 da 72 3c 42 18 ea 3c 95 43 0a bd 40 d3 0f 3c
       0.01482271 0.02857602 -0.033755857 0.008778393
000120 48 2f 24 3c 9a 17 8f 3c 40 63 2e 3a db aa 31 bd
       0.010021038 0.017467309 0.00066523626 -0.04337583
000130 cb 75 46 bd c3 1f 31 3d 98 5c a5 bb e2 1c 1c bd
       -0.04845218 0.04324318 -0.0050464384 -0.038113482
000140 7a 02 b2 3c 1a b5 c0 3c 60 f4 5a bc fe 8f ed 3c
       0.021729697 0.023523856 -0.013363928 0.028999325
000150 75 b2 1e bd e0 df f0 bc 2e ee 24 bd 85 4c 29 3d
       -0.03874441 -0.029403627 -0.04026621 0.04133274
000160 4e fe ac 3c a1 45 1c 3d 55 35 44 bd 03 2c 49 bd
       0.021117356 0.03815234 -0.047902424 -0.04911424
000170 8a e5 97 bc 49 65 42 3d 50 4b 23 bd f1 b0 34 3d
       -0.01854207 0.047459874 -0.039866745 0.044114057
000180 e7 07 d4 bc 73 7f 42 3d 60 bf 67 bc de 68 91 3c
       -0.025882674 0.047484826 -0.014144748 0.0177502
000190 03 9c 24 bd 70 b9 a1 bb 23 0a ac bc ea 84 86 3c
       -0.040187847 -0.004935436 -0.021000927 0.0164208
0001a0 f0 bc bb bc 24 68 5e 3c 02 c1 a0 3c d6 41 a1 3c
       -0.02291724 0.013574634 0.019623283 0.019684713
0001b0 40 b2 19 bd 4d 8d 15 3d 42 a7 c1 3c f7 f8 04 3d
       -0.037523508 0.036511708 0.023639325 0.032463994
0001c0 50 66 a2 bc 1b 89 2a bd f2 1c d3 3c c3 cc fa bc
       -0.019824177 -0.04163466 0.025770638 -0.030615216
0001d0 82 df 91 3c f0 0b d2 bb 63 c8 4a bd e1 ab 15 3d
       0.017806772 -0.0064101145 -0.04950751 0.03654087
0001e0 cd 5c 43 bd b5 c7 2c bd 38 aa 1e bd 2a 49 e0 3c
       -0.047695924 -0.042182643 -0.038736552 0.027378637
0001f0 68 44 70 bc 6a 8d c3 3c 81 63 2b 3d 8d 59 f1 bc
       -0.014664747 0.023871142 0.04184294 -0.029461646
000200 0e 7c b5 3c 50 58 eb 3b b8 bc 0f bd af 9c 44 bd
       0.02215388 0.0071821585 -0.035092086 -0.048000988
000210 9d c8 1f 3d 30 19 fd bb 06 67 af 3c 03 05 ae bc
       0.03900968 -0.00772395 0.02141143 -0.021242624
000220 6d 97 ca bc 30 a0 da 3b 42 69 e4 3c 20 34 a1 bc
       -0.024730409 0.006671928 0.027882222 -0.019678175
000230 1a 7c d0 3c 00 44 fa bc 54 fc 06 bc d7 15 13 3d
       0.025449801 -0.030550003 -0.008238871 0.0359095
000240 2a c7 1d bd 67 a3 3c bd fb 62 49 bd b4 89 4b bc
       -0.038520016 -0.04605427 -0.04916666 -0.012422968
000250 da 9a 9e bc ee af 22 bd 62 8a 9e 3c e6 45 9f 3c
       -0.019360948 -0.03971856 0.019353095 0.01944251
000260 34 05 97 bc 33 54 0d 3d 3a dc 8b bc b3 b0 99 bc
       -0.018435098 0.034504127 -0.017072786 -0.018761015
000270 e0 d2 0f bb 60 8b e6 3a 50 75 db bb ba 6b 10 bd
       -0.002194576 0.0017589144 -0.0066973343 -0.035258986
000280 e9 d7 21 3d 18 04 9c bb 90 5c a8 3b 20 5e 03 3b
       0.03951255 -0.00476123 0.0051379874 0.0020045117
000290 03 9c 4b 3d 94 ba 6f 3c 82 5b d2 3c 10 c0 d2 bc
       0.04970933 0.014631886 0.0256784 -0.025726348
0002a0 1a d6 e2 3c 58 66 e4 3b 30 a6 ec 3b 22 cf bb 3c
       0.027689982 0.006970208 0.0072219595 0.022925917
0002b0 41 03 2d 3d 63 c9 1e 3d 75 f1 38 bd 04 49 0a bd
       0.04223943 0.038766276 -0.045152146 -0.03376104
0002c0 00 04 cb 3a 0e 0c 92 3c cd 6c 0f bd 1a 10 e8 bc
       0.0015488863 0.017828014 -0.03501587 -0.02832799
0002d0 8e 06 26 bd 6b 1c 36 bd cd 4e 2e bd d0 91 90 3b
       -0.040533595 -0.044460695 -0.04255562 0.0044119135
0002e0 c2 d0 b2 3c 06 f2 1d bd c0 3f e9 3b 8d 9d f8 bc
       0.02182806 -0.03856089 0.0071181953 -0.030348564
0002f0 66 9f 97 bc 9c f5 95 bc 18 a5 3e bc 40 f0 ca bb
       -0.018508624 -0.018305592 -0.011636041 -0.006193191
000300 a0 32 78 3b ec 91 06 bc 02 39 19 bd 66 8a e2 3c
       0.0037871972 -0.008213501 -0.037407883 0.027653884
000310 a0 9f d9 3a 21 fe 3d 3d c9 d9 1b 3d 8e ca bb 3c
       0.0016603358 0.046384934 0.038049493 0.022923734
000320 51 45 18 3d c2 84 f8 3c bf 61 0a 3d 00 96 97 3a
       0.03717548 0.030336741 0.033784624 0.0011565089
000330 36 b8 15 bd d8 71 cd bb 18 ec 9e 3b 2b d2 24 bd
       -0.03655263 -0.0062696747 0.004849922 -0.040239494
000340 d4 25 4c 3c 81 31 24 3d b4 72 64 bc f0 d4 dd bb
       0.012460191 0.040086273 -0.013943363 -0.006769769
000350 a0 8b e2 ba ea 9c aa bc c8 e5 2d bc 70 e2 29 bd
       -0.0017284043 -0.020826776 -0.010613866 -0.041475713
000360 56 7c fc 3c 54 46 47 3c bf 17 2b 3d 3d 51 d8 bc
       0.030821007 0.012162764 0.041770693 -0.026405925
000370 53 aa 06 3d 43 44 a0 bc 74 f7 61 3c b4 ca 34 bc
       0.032877278 -0.0195638 0.013791908 -0.011034656
000380 22 b3 a3 3c 4a b0 cf 3c 58 bc 54 bc 00 14 90 39
       0.019982878 0.025352616 -0.012984358 0.00027480721
000390 b5 77 10 bd 88 05 41 bd 08 33 18 bd b9 c6 03 3d
       -0.03527041 -0.047124416 -0.037158042 0.03217194
0003a0 ac ac 36 bc d0 67 98 bb e0 2d 30 3b fd cd e4 bc
       -0.011149567 -0.0046510473 0.0026882812 -0.027930254
0003b0 b0 ae 3d 3b e4 d8 97 bc 0e fb 02 bd f5 24 3e bd
       0.0028943233 -0.018536039 -0.031977706 -0.046421964
0003c0 80 ec 1b bd 71 ee 01 3d bd b7 39 3d b4 f3 95 bc
       -0.03806734 0.031721536 0.045341242 -0.018304683
0003d0 e4 a1 67 3c 48 19 21 3c 60 af 36 bc a7 03 a4 bc
       0.014137719 0.009832688 -0.011150211 -0.020021273
0003e0 60 82 05 3c d4 00 88 bc 70 17 89 3b 28 cd 2a bd
       0.00814876 -0.016601957 0.004183702 -0.04169956
0003f0 00 25 7f bb 80 fc ba 3b a0 4a 91 bc 89 bb 48 3d
       -0.0038931966 0.00570637 -0.01773578 0.049006972

fc2.bias f4 [84]
000000 28 21 6d 3d f1 ac ac bd c0 be 25 bb f4 c2 fa 3c
       0.05789295 -0.084314235 -0.0025290698 0.030610539
000010 c4 7f 89 3d 3f 29 08 bd d5 5f 78 bd c4 59 97 3d
       0.067138225 -0.03324246 -0.060638268 0.07390168
000020 36 33 ed bc 84 2e 0f bd 92 e2 ba bd 1a 38 8d 3d
       -0.028955083 -0.03495647 -0.09125246 0.06895466
000030 7a 04 a8 3d 1f 99 0d bd ec cb b3 3d 3a b6 ba 3d
       0.08203979 -0.034569856 0.087791294 0.09116788
000040 b6 95 a5 3d 60 56 11 3c e0 fa 8e 3d b8 8b e2 bc
       0.08085196 0.008870691 0.06981444 -0.027654514
000050 4b ab 32 bd c0 bc 6f 3d 40 dc f6 bb e3 6c 80 bd
       -0.04362039 0.058529615 -0.00753358 -0.062707685
000060 d0 8e 1e 3d a0 7a 9e 3c 9c c8 52 3d 28 b3 3d bd
       0.038710415 0.019345582 0.051460847 -0.046313435
000070 ca 3c a0 3d 34 f3 7d 3d 69 75 b9 bd 68 c0 54 3d
       0.078240946 0.061999515 -0.09055597 0.051941305
000080 4f 33 12 bd 00 18 a7 b8 08 bd 29 bc 70 30 1d bc
       -0.035693463 -7.967651e-05 -0.01036001 -0.009594068
000090 d8 b1 21 bc 1e f6 fd bc 00 56 4c bb 03 4b 61 bd
       -0.009869061 -0.031001147 -0.003117919 -0.055003177
0000a0 67 d8 b4 bd c8 db 51 3d 02 11 20 bd 55 7a b1 bd
       -0.08830338 0.05123499 -0.03907872 -0.08665911
0000b0 89 c8 a9 bd 8c 28 04 3d 71 fd 04 bd f4 14 74 3d
       -0.08290202 0.03226523 -0.032468263 0.059590295
0000c0 28 78 29 bd 13 d5 30 bd 9c 9e 5e 3d 52 c5 87 bd
       -0.041374356 -0.043171953 0.05435048 -0.06629433
0000d0 c6 1f 67 bd 7f 80 09 bd 90 96 8a bb 2c d5 3a 3d
       -0.056426786 -0.03356981 -0.004229374 0.045613453
0000e0 ea 36 0e bd 8c 2d b9 bd ac ee 15 3d 9c 94 ca 3c
       -0.03472034 -0.090418905 0.03660457 0.024729066
0000f0 a8 a9 50 3c 44 59 47 3d 12 d5 a2 bd c8 b2 d8 bc
       0.012735762 0.048669115 -0.07950796 -0.026452437
000100 d1 a7 b1 bd f8 c8 93 3c 48 18 28 bc dc 82 93 3d
       -0.086745866 0.018040165 -0.010259695 0.07202694
000110 10 3f fe bb 14 71 e2 3c df 70 81 bd 30 7c 98 3d
       -0.0077589825 0.02764181 -0.063203566 0.07445562
000120 f4 5a 93 bd 50 cb 03 3c f2 42 a2 3d e5 ec 92 bd
       -0.07195082 0.008044079 0.07922925 -0.0717409
000130 4c 26 80 3c 11 96 3c bd 13 25 70 bd 02 c1 9c 3d
       0.015643261 -0.046041552 -0.058629107 0.07654001
000140 02 b0 af bd 38 e8 97 bd 95 29 29 bd 40 c1 6a 3c
       -0.08578493 -0.07417339 -0.04129942 0.014328301

fc2.weight f4 [84, 120]
000000 59 15 ba bd 00 ff d2 ba 64 cc ad 3c f0 d8 92 3c
       -0.09086103 -0.0016097724 0.021215625 0.01792571
000010 9c 02 8b 3c b0 c2 9f 3b 64 f0 a5 3d a0 e6 68 3d
       0.016969018 0.0048755035 0.081024915 0.056860566
000020 9a 8c 9c 3d 7c 96 bc bc e3 e0 8a bd 5f 94 b6 bd
       0.07644005 -0.023020975 -0.06781175 -0.08915018
000030 40 57 9c bc 90 bf d5 bc 69 e4 8b bd 24 b3 bd 3c
       -0.019084573 -0.02609232 -0.06830675 0.02315671
000040 e8 b7 b7 3c 9a 79 83 bd d0 52 ef bb 00 db c4 3c
       0.02242656 -0.06419678 -0.007303573 0.024030209
000050 c4 4f 29 3d f4 3a 73 3d 54 16 60 3d 5c a3 66 3d
       0.041335836 0.059382394 0.054708794 0.056308135
000060 a4 0b 89 bc 0b 80 49 bd c0 2b e0 bc 56 16 94 3d
       -0.016729183 -0.049194377 -0.027364612 0.07230823
000070 56 40 ae 3d ac 11 78 3d 38 87 79 3d c4 76 a7 3d
       0.08508365 0.06056373 0.06091997 0.081769496
000080 44 07 3b 3d 1f 8c 3a bd cf 1f b1 bd 28 0e c9 bc
       0.045661226 -0.045543786 -0.08648645 -0.024542883
000090 78 8d 50 3c b3 f5 b7 bd e4 40 a6 3d 09 07 52 bd
       0.012729041 -0.0898241 0.08117846 -0.05127624
0000a0 16 f2 8f 3d 3a 6e 5a bd c0 61 58 bc cc 9e 74 bd
       0.07028596 -0.053327776 -0.013206899 -0.059721753
0000b0 54 52 e7 bc 7c 65 bb 3c 48 eb 4f 3d 18 ac 33 3d
       -0.0282375 0.02287554 0.05076149 0.043865293
0000c0 28 38 6d 3d da 7e b3 3d 00 76 c6 3b 24 f1 cd bc
       0.057914883 0.087644294 0.006056547 -0.025139399
0000d0 ac 5a 54 bd a4 94 65 3d dc ef 66 3d 6e cc 91 bd
       -0.051844284 0.056049958 0.05638109 -0.0711907
0000e0 68 05 ad 3d 34 05 97 3c 44 bc 9f bd 84 2b ae 3d
       0.08448297 0.018435098 -0.07799581 0.08504394
0000f0 00 57 1b 3d 53 38 0d bd 5c 5b b3 bd 7b 6c 01 bd
       0.037924767 -0.034477543 -0.0875766 -0.031597596
000100 84 37 64 3d 80 ca ac 3b 98 43 19 3d 72 4f 94 3d
       0.055717006 0.0052731633 0.037417978 0.072417155
000110 1c 55 79 bd ca 14 ab 3d 40 f1 2d bd 18 84 4d bc
       -0.060872182 0.083535746 -0.042466402 -0.012543701
000120 ec 60 35 3d 20 22 56 3d d9 21 12 bd 4c c9 4d 3d
       0.044281885 0.052278638 -0.03567681 0.0502408
000130 60 5d e1 3b 74 04 df 3c fc 2c ea bc 8c 57 a4 3d
       0.0068775862 0.027223803 -0.028585903 0.08024511
000140 30 bd bc 3b 7c d4 a8 bc b4 8c 86 3d 26 dd a6 3d
       0.0057598576 -0.020609133 0.06569806 0.081476495
000150 e4 ff 9d 3c 16 51 a7 bd 54 67 d3 3c 78 8c 29 3d
       0.019287057 -0.08169763 0.025806107 0.041393727
000160 d4 25 de bc 6b f6 61 bd 28 cd b7 3c 58 b6 b8 3d
       -0.027117647 -0.055166643 0.022436693 0.09019154
000170 ee 2b 87 bd 92 fd b7 3d 0c c0 25 3d 35 95 05 bd
       -0.06600176 0.089839116 0.040466353 -0.032612998
000180 24 9f ed 3c 96 64 3b bd 04 f2 9e bd f2 36 03 bd
       0.029006548 -0.045750223 -0.077610046 -0.03203482
000190 04 ff d1 bc d4 36 8c 3d 90 e4 49 3d 93 1c aa bd
       -0.025634296 0.06846395 0.04929024 -0.08306231
0001a0 d8 eb 7d 3c 30 24 84 bc 70 4b 47 bc 84 63 84 bd
       0.015498124 -0.016130537 -0.012163982 -0.064642936
0001b0 d2 7c 98 3d 3c 12 b6 3c 78 9b 52 3d fc d3 b4 3d
       0.074456826 0.022225492 0.051417798 0.08829495
0001c0 6c 16 6e 3d ec 4b a7 3d ce 5c 45 bd 70 16 18 3d
       0.058126852 0.08168778 -0.04818421 0.037130773
0001d0 2a 8a 74 bd e0 76 1d bb 60 76 64 bc dc da aa bd
       -0.059702076 -0.0024027154 -0.013944238 -0.08342525
0001e0 80 d9 5b bc a6 f4 aa 3d a0 a3 12 bc 60 71 6f 3d
       -0.013418555 0.08347444 -0.008950144 0.058457732
0001f0 1c 86 8e 3d 50 70 d1 3b d0 d7 e1 3c 88 76 68 3d
       0.06959173 0.0063915625 0.027568728 0.056753665
000200 c0 7f c7 3c 80 58 27 bb e9 da 51 bd de 3d f9 bc
       0.024352908 -0.0025534928 -0.05123416 -0.030425008
000210 84 87 96 3c d8 10 33 3d af ab 05 bd 2c 58 b4 bd
       0.018375166 0.043717235 -0.032634433 -0.0880588
000220 98 c5 33 3d cc 43 66 3d 70 db 8c bd 4b a2 a1 bd
       0.043889612 0.056217 -0.06877792 -0.07892283
000230 9c 20 cf bc 10 53 a8 bd 65 b0 67 bd eb a4 88 bd
       -0.025284104 -0.08218968 -0.056564707 -0.066720806
000240 14 fb ba bc 2e 1a 95 bd 80 0b fe 3a 80 f9 99 3d
       -0.022824802 -0.07280384 0.0019382089 0.075182915
000250 96 2c 88 3d 3e 47 96 3d b8 57 7f bd 86 e3 62 bd
       0.06649129 0.07337807 -0.062339514 -0.055392765
000260 7c 68 86 bd a0 33 ba bb cf 9f 1e bd 56 e1 93 3d
       -0.065628976 -0.0056824237 -0.038726624 0.07220714
000270 0b 2b 5b bd e0 5d 60 3c 68 cb 5d bd bc ee b5 3d
       -0.053507846 0.013694257 -0.05414906 0.088834256
000280 d0 3d c3 bb 30 45 31 3d 74 23 aa 3d 10 f9 4f bc
       -0.0059582964 0.043278873 0.083075434 -0.0126936585
000290 86 1b b3 3d a4 22 e6 bc 70 9d 22 3c 40 49 ac 3c
       0.08745484 -0.02809269 0.009925231 0.021031022
0002a0 d4 85 73 3d a7 25 a8 bd 50 d7 1e 3d 9d 0e 41 bd
       0.0594538 -0.082103066 0.038779557 -0.047133077
0002b0 e0 81 c4 bc 7c 8e a1 3c 20 a7 aa bd 94 89 b5 3c
       -0.02398771 0.019721262 -0.08332658 0.022160329
0002c0 e5 82 29 bd 00 af 38 bd 3c e1 60 bd e6 01 40 bd
       -0.041384596 -0.045088768 -0.0549023 -0.04687681
0002d0 1e 40 b0 3d c4 33 fa 3c bc 0f b7 bd 59 c9 93 bd
       0.086059794 0.030542262 -0.08938548 -0.072161384
0002e0 08 46 68 3c fd c2 9b bd b6 2f a3 3d 34 cd 9a 3c
       0.014176853 -0.076055504 0.079680845 0.018896677
0002f0 00 7d 4b ba 1c 63 a5 bc e8 8c 9b bd b2 22 67 bd
       -0.0007762462 -0.02018886 -0.07595235 -0.056429572
000300 7a 4b a2 3d 01 97 40 bd 18 c5 25 bc cc 68 4b 3d
       0.07924552 -0.04701901 -0.010117792 0.04966049
000310 d0 92 9e 3d 55 39 12 bd e8 14 ba 3d 30 48 5b 3d
       0.07742846 -0.035699207 0.09086019 0.05353564
000320 e0 42 ad 3c 28 0d 80 3c 38 77 a7 3d 4c e9 8e 3d
       0.021150053 0.015631273 0.08177036 0.069780916
000330 2f 52 b5 bd 83 5a 22 bd 30 de 64 bd 93 12 45 bd
       -0.08853566 -0.0396371 -0.055875957 -0.048113417
000340 0c e1 1b bd d2 d1 a3 bd c0 bd 1a bc 52 b7 81 3d
       -0.03805642 -0.079990044 -0.009444654 0.06333794
000350 b8 c1 d1 3c c8 94 c3 bc 38 a9 8c 3d 9c c3 b8 bd
       0.025605068 -0.023874655 0.068682134 -0.090216845
000360 28 72 53 3d 9e e6 b9 3d b4 46 cc bc 57 d9 81 bd
       0.05162254 0.0907719 -0.024936058 -0.063402824
000370 9c 33 92 bd 74 8e a5 3c 98 46 ba bc f0 12 1e 3c
       -0.0713875 0.020209529 -0.02273874 0.00964807
000380 00 eb a0 bd 10 fa 83 3d c8 4e 38 3c d8 98 6c 3d
       -0.07857323 0.0644418 0.011249252 0.05776295
000390 c0 0d 94 bd 32 67 36 bd d8 84 5e bc 4e 6d 18 bd
       -0.07229185 -0.04453201 -0.013581477 -0.037213616
0003a0 a4 3c 6e 3d 44 0b 9b 3d c0 af c0 3c be 4c 47 bd
       0.0581633 0.07570508 0.023521304 -0.04865717
0003b0 ec ff 94 3d d5 8c ac bd b8 70 df 3c 14 a2 19 3d
       0.07275376 -0.08425299 0.027275428 0.037508085
0003c0 c6 44 17 bd 10 ee 70 3c a9 1e 97 bd 22 40 b1 3d
       -0.03693082 0.014705196 -0.07378895 0.086548105
0003d0 12 a3 a7 3d 93 ae ae bd 8c ce 74 3d 6e 0e 89 bd
       0.081854 -0.08529391 0.05976729 -0.06692205
0003e0 a8 36 33 bc 80 49 a3 3c ed bc 86 bd 80 19 67 bb
       -0.010938324 0.019932508 -0.065790035 -0.0035263002
0003f0 c5 97 07 bd 00 ac bd b8 26 24 95 3d ea 5d 8b bd
       -0.033103723 -9.04426e-05 0.072822854 -0.06805022

fc3.bias f4 [10]
000000 f2 8c 69 3d d0 5d 97 3b 3c c9 be bc b3 16 85 3d
       0.05701918 0.0046193376 -0.023289315 0.0649847
000010 ec aa d1 3c 84 aa 96 3c fb 31 80 3d 23 45 8d 3d
       0.025594197 0.018391855 0.06259533 0.068979524
000020 94 84 34 bd 2a 20 31 3d
       -0.04407175 0.043243565

fc3.weight f4 [10, 84]
000000 45 61 8d 3d 2c 10 4e bd c1 9a 5b bd 81 56 ca bd
       0.06903318 -0.05030839 -0.05361438 -0.098797806
000010 30 13 6a 3c 02 27 78 bd 8a 8d 11 3d 2b 34 ad 3d
       0.014286801 -0.060584076 0.035535373 0.08457216
000020 ac 0a 38 bd 5e e3 55 3d fd f2 a0 3d ca 2c 3d 3d
       -0.044932052 0.052218787 0.07858846 0.046185292
000030 f6 9f 1f bd 60 79 6a bd 88 73 a2 bd fc ea 06 bd
       -0.03897091 -0.05724466 -0.07932192 -0.032938942
000040 52 da 78 3d 82 6a 6e 3d 23 cb ad 3d b2 e9 a2 bd
       0.06075508 0.058207043 0.08486011 -0.0795473
000050 28 61 ca bc 36 a0 3d 3d c8 7f 28 bc 2b cd a3 3d
       -0.02470453 0.046295367 -0.010284372 0.07998117
000060 a6 1b 4b 3d 46 94 b4 bd 6d 37 ad 3d 70 73 e3 bb
       0.049586914 -0.088173434 0.08457837 -0.0069412515
000070 7b b1 d1 bd 1c 7c ff bc 26 3f 66 3d 90 9f 78 bc
       -0.1023893 -0.03118711 0.056212567 -0.015174761
000080 fa 14 40 bd 74 36 b9 3c e7 a2 a6 3d 92 db 2b 3d
       -0.046895005 0.022608973 0.0813654 0.041957445
000090 78 1f af bd 09 21 bb 3d b0 2b ad bd 10 c1 8d bb
       -0.08550924 0.0913716 -0.08455598 -0.0043259934
0000a0 4b 6e 93 3d ab 4e a7 3d 40 95 01 bb 4e 46 8e bd
       0.07198771 0.081693016 -0.0019772798 -0.06947003
0000b0 1f 7f 41 bd fb c1 91 3d 52 6a 0d bd 93 26 d7 3d
       -0.047240373 0.07117077 -0.034525223 0.10505404
0000c0 c8 a0 22 bd ce ab 76 3d 07 ee bd 3d c8 9c 64 bc
       -0.039704114 0.06022244 0.09273916 -0.013953395
0000d0 20 4e e6 3b c2 bb 50 3d 67 dd 8c 3d 33 05 ca bd
       0.007028356 0.05096031 0.06878167 -0.09864273
0000e0 0c f9 ea bc f0 d4 55 3c d3 d4 b3 3d e7 6d c9 3d
       -0.028683208 0.013051257 0.087808274 0.09835415
0000f0 68 d9 49 bc 26 c0 81 bd 72 41 8d bd e9 c0 53 bd
       -0.0123199 -0.063354775 -0.06897248 -0.051697645
000100 ab fb 68 bd 72 68 18 bd 00 cc d5 3a 14 1f bc bc
       -0.056880634 -0.03720898 0.0016311407 -0.022964038
000110 f9 c5 93 3d 94 a1 dc 3c a1 7d b7 3d 31 79 95 3d
       0.07215495 0.026932515 0.08959509 0.07298506
000120 d0 86 19 bd a2 61 08 3d 45 3a ce 3d 62 64 7f 3d
       -0.037482083 0.033296235 0.10069708 0.062351592
000130 b5 c7 97 3d 92 76 35 3d 24 a6 dd bd c0 18 2f bb
       0.07411138 0.04430253 -0.108227044 -0.0026717633
000140 20 4a ba bc 20 ed 63 bb 32 15 77 3d 81 0c b7 3d
       -0.022740424 -0.0034778789 0.060322948 0.08937932
000150 78 35 23 bc 7a 85 20 3d a0 17 f2 3b 14 0b 85 3c
       -0.009961478 0.039189793 0.00738807 0.016240634
000160 4c 98 a3 bd e8 c8 46 bc a7 72 c4 3d 5c 9a e3 3c
       -0.07988033 -0.012132861 0.09592181 0.027783565
000170 7c 93 98 3c 8c 1d 04 bd 09 6c 65 bd 67 b4 90 3d
       0.018625014 -0.03225474 -0.056011233 0.07065659
000180 d4 b4 bc bc 04 4f 98 bd a7 13 ca 3d ab ef 9d 3d
       -0.023035444 -0.07436946 0.0986703 0.07711729
000190 54 15 96 bc 26 92 c2 bd f9 95 b7 3d 00 d7 c9 3a
       -0.018320717 -0.09500532 0.08964152 0.0015399158
0001a0 4e d7 59 3d 9e 46 43 3d 33 5c 96 3d 49 84 de 3d
       0.053183846 0.047674768 0.07341804 0.10865075
0001b0 7c a1 a3 bd 05 70 a2 3d 3b 5c c2 3d 3d 34 a7 bd
       -0.07989785 0.07931522 0.09490248 -0.081642605
0001c0 cc 87 98 bc 42 b5 b4 bd 4b 35 94 3d cd 38 92 3d
       -0.01861944 -0.08823635 0.07236727 0.0713974
0001d0 c8 b3 ae bc 72 d2 23 3d 94 54 1a bd b5 e4 84 3d
       -0.02132596 0.03999562 -0.037678316 0.06488935
0001e0 24 fb 83 3c ba 61 94 bd 5e e8 8a bd 33 31 a6 3d
       0.016110964 -0.07245202 -0.06782602 0.08114853
0001f0 1e 41 99 bd 5c 86 be 3c 27 34 96 3d 9a db 24 3d
       -0.07483123 0.023257427 0.07334166 0.04024849
000200 f4 bb af 3c e6 44 6b 3d 55 19 d1 3d d4 61 81 3c
       0.021451928 0.057438754 0.1020991 0.015793718
000210 46 69 9a bd 1e df 13 bd 41 4f 85 bd f1 f9 c6 bd
       -0.075396106 -0.036101453 -0.06509257 -0.09715641
000220 bc 45 fe 3c f0 2e e8 3b fe a9 1b 3d 39 5c aa bd
       0.031039111 0.0070856735 0.038003914 -0.08318371
000230 34 e3 ee bc ca ec cc bd 5c 59 bc bd b6 8d 68 3d
       -0.029161073 -0.100061014 -0.091967314 0.05677577
000240 e0 55 bb bb b4 84 b4 3c a0 f8 db bc 54 92 97 bd
       -0.005717024 0.022035934 -0.026851952 -0.07400957
000250 05 dc d0 bd 32 2b 5e bd e0 68 04 bd 58 51 e3 bc
       -0.101982154 -0.054240413 -0.03232658 -0.027748749
000260 95 18 9c 3d ee 25 02 3d ab e5 d3 3d 4d 9d 58 bd
       0.07621876 0.031774454 0.1034654 -0.05288439
000270 62 f5 57 3d 97 e0 b8 3d 5c 15 b5 bc 87 f7 86 3d
       0.05272425 0.09027212 -0.022104912 0.06590181
000280 e5 18 54 bd 82 b7 d7 bd 63 3d 6b bd 86 92 c3 bd
       -0.051781554 -0.10533048 -0.05743159 -0.095494315
000290 b7 9d 9e 3d d0 cb 66 bc 7c ce 8f bd 59 f6 bb bd
       0.077449255 -0.014086679 -0.07021806 -0.091778465
0002a0 6c 96 fc 3c 30 a8 25 3c 5c b3 d4 bd fc d8 b9 bc
       0.030833445 0.0101109 -0.103857726 -0.022686474
0002b0 cc ae d4 3c 38 22 63 bc fd be 8b 3d a6 cb 0a 3d
       0.025962256 -0.013863139 0.068235375 0.03388562
0002c0 40 7b 3c 3c 80 2b 3d 3c 70 c5 f1 3b c7 7c a9 3d
       0.011503994 0.011546016 0.0073782727 0.082757525
0002d0 a0 10 50 3b dc 30 c2 bd af 08 97 3d e6 97 87 bd
       0.003174819 -0.094819754 0.07374703 -0.06620769
0002e0 fb c3 aa bd 42 80 59 3d 32 8f 92 bd 18 1c ad bd
       -0.083381616 0.05310083 -0.071562186 -0.08452624
0002f0 ee 48 6b 3d 74 d6 1e bd b5 f0 63 bd 20 76 e6 bc
       0.057442598 -0.038778737 -0.055649478 -0.028132498
000300 c0 0a 8a bc 18 04 2d bd 5d d5 6b bd 16 84 98 bd
       -0.01685083 -0.042240232 -0.057576526 -0.074470684
000310 e8 2f 7e bd 04 9a c6 bd 70 fa 2c bd cd 11 c3 bd
       -0.062057406 -0.09697345 -0.042231023 -0.095248796
000320 f0 82 a3 bd 96 69 ad bd ad 42 41 bd 5a ef 39 bd
       -0.07983959 -0.084674045 -0.047182728 -0.04539428
000330 db 76 99 3d 8c 36 aa bd 60 f1 b5 bd 9d 4f cf bd
       0.07493373 -0.08311185 -0.08883929 -0.10122607
000340 a4 1b b5 3c 35 83 9f 3d 74 c5 dd 3c b8 85 e2 bc
       0.022107907 0.07788698 0.027071692 -0.027651653
000350 00 d1 80 b9 7c 2b 85 3c 60 ec e8 3b b8 3c ae bd
       -0.0002456978 0.016256087 0.007108256 -0.08507675
000360 9e 2d a7 bd c0 7c c1 ba c8 85 cb bc a3 8a d8 bd
       -0.08162998 -0.001476191 -0.024844065 -0.10573318
000370 87 f5 b1 3d 60 55 13 bc 7c 17 87 bd a0 d8 30 bb
       0.08689409 -0.008992523 -0.06596276 -0.0026984587
000380 70 1b ba bc 4c 02 8c 3c 38 b4 bc bd fa 8e a9 bd
       -0.022718161 0.017090939 -0.092140615 -0.08279224
000390 40 b3 b4 3a 84 95 b8 3c 26 67 c8 bd bc 50 b9 bd
       0.0013786331 0.022532232 -0.09785299 -0.09048602
0003a0 a0 c5 00 bc 20 b4 23 3b c4 b5 af 3c e4 45 e4 3c
       -0.0078596175 0.002497919 0.021448977 0.027865358
0003b0 ce ba 8d bd f9 53 cb 3d 20 f6 ae bd 70 44 fb bb
       -0.06920396 0.09928126 -0.08543038 -0.0076680705
0003c0 b0 fe 7c 3c 44 71 f5 3c 44 7e 55 bd 0b d7 ab 3d
       0.015441582 0.029961236 -0.05212237 0.083906256
0003d0 d7 84 cf 3d 48 86 27 bd e7 ed dc 3d 3c 4b f3 bc
       0.10132759 -0.040899545 0.10787564 -0.02969896
0003e0 80 57 7b 3a 22 a0 15 3d 4a 56 c2 bd 60 30 a7 bb
       0.00095879287 0.036529668 -0.094891146 -0.0051022023
0003f0 ea bb 39 3d f0 05 84 bd bd 95 8c 3d c1 f6 cd bd
       0.045345224 -0.06446445 0.06864498 -0.1005683
