pytorch_onnx/models/model1.onnx (onnx, 249491 bytes, 10 tensors)

conv1.bias f4 [6]
0	0x3dda78c4	0.106675655
1	0x3de63ba6	0.11241846
2	0x3db8ad64	0.09017447
3	0xbceb36e4	-0.028712697
4	0xbd8f6fda	-0.07003756
5	0x3da98038	0.08276409

conv1.weight f4 [6, 3, 5, 5]
0	0xbd87c64a	-0.066296175
1	0x3d96c95a	0.073626235
2	0x3d188aa0	0.037241578
3	0xbdb1211a	-0.08648892
4	0x3d95e662	0.07319333
5	0x3cdd98e0	0.027050436
6	0x3da4fdec	0.08056244
7	0xbd68948f	-0.0567823
8	0xbc3ffbf8	-0.011717789
9	0xbd3d9cc8	-0.046292096
10	0xbda240ff	-0.07922553
11	0x3d91f95c	0.0712764
12	0x3cf1f4f8	0.029535756
13	0xbcb607f4	-0.02222059
14	0xbdb6a0be	-0.08917378
15	0x3d9a3366	0.07529335
16	0xbc1466d0	-0.009057716
17	0xbd50f7d4	-0.051017597
18	0x3d566a84	0.052347675
19	0x3dd53388	0.104102194
20	0x3cb0f0f0	0.021599263
21	0xbde77b81	-0.113028534
22	0x3d7b6b6c	0.061381742
23	0xbcca4a44	-0.024693616
24	0x3dddc8ca	0.10829313
25	0x3ae2da00	0.0017307401
26	0x3dda2c68	0.10653001
27	0xbde750c2	-0.112947
28	0x3da6d95c	0.08146927
29	0x3d11c084	0.035583988
30	0x3ccf2728	0.025287226
31	0x3cc6c720	0.024264872
32	0xbcc66ea0	-0.024222672
33	0xbd42da5e	-0.047571532
34	0x3d8b076e	0.067885265
35	0xbd7f3997	-0.06231078
36	0x3dc22e6c	0.094815105
37	0xbdca62e4	-0.09882143
38	0xbc77c428	-0.015122451
39	0x3acd5700	0.0015666187
40	0x3d8f07fc	0.06983945
41	0x3d266c30	0.04063052
42	0xbdaa172c	-0.08305201
43	0xba804b80	-0.0009788126
44	0x3c965460	0.01835078
45	0x3dc1094c	0.09425601
46	0x3dd840d4	0.1055924
47	0x3de329a8	0.1109193
48	0x3da6081e	0.08107017
49	0xbdd870b4	-0.105683714
50	0xbd829ead	-0.06377921
51	0x3dc6732e	0.096899375
52	0xbc3545f8	-0.011064045
53	0x3d1e9aec	0.038721964
54	0xbdab2a6c	-0.08357701
55	0x3cd9de38	0.02659522
56	0xbd96e8dc	-0.07368633
57	0x3de8ca84	0.11366752
58	0x3a564780	0.00081741065
59	0x3ceb5d40	0.028730989
60	0x3de57754	0.11204401
61	0xbd8aed90	-0.06783593
62	0x3bd2e550	0.0064360276
63	0xbdc66aaa	-0.09688313
64	0x3d0c76e8	0.034293085
65	0xbd52b858	-0.051445335
66	0x3ce0d968	0.027447417
67	0x3d77d86c	0.06050913
68	0xbdc7016e	-0.097170696
69	0xbc8dc5e8	-0.017306283
70	0x3c7d32a0	0.0154539645
71	0x3cba5c60	0.022749126
72	0x3c8ac4b0	0.016939491
73	0x3dcf24b0	0.101144195
74	0xbcc3eae0	-0.023915708
75	0x3d871db4	0.06597462
76	0xbcfc44a4	-0.03079445
77	0x3dbdcd24	0.09267643
78	0xbcfe742c	-0.031061254
79	0x3daee276	0.08539288
80	0x3d94acbc	0.07259509
81	0x3cd979b8	0.026547298
82	0xbdb5546b	-0.08853992
83	0x3db3a4f2	0.08771695
84	0x3dd1393c	0.10215995
85	0x3d23ebf8	0.04001996
86	0x3d18ba0c	0.037286803
87	0x3beca910	0.0072223023
88	0x3d89c412	0.067268506
89	0x3de1686c	0.11006245
90	0xbde5c186	-0.11218552
91	0x3dc58c3c	0.09645888
92	0x3dc5e4a4	0.0966275
93	0xbd77952a	-0.06044499
94	0x3cfa9fe0	0.030593812
95	0xbd338a1e	-0.04383289
96	0xbd24e92a	-0.040261425
97	0x3d97a1d8	0.07403916
98	0xbde6abcc	-0.112632364
99	0xbdcf03f4	-0.10108176
100	0xbde9d61b	-0.114177905
101	0x3d6eea0c	0.058328673
102	0xbcb4a628	-0.022051886
103	0xbd8d6c95	-0.06905476
104	0xbdbf48f0	-0.093400836
105	0x3d87b510	0.06626332
106	0xbda7d8da	-0.08195658
107	0x3dbb9a6e	0.091603145
108	0xbd3b759a	-0.04576645
109	0xbcc6f578	-0.02428697
110	0x3cecf738	0.028926477
111	0xbd68b77d	-0.056815613
112	0x3c9ec000	0.019378662
113	0x3d4a76d4	0.04942973
114	0xbd73a821	-0.059486512
115	0xbdc3e544	-0.09565213
116	0x3d2d93e0	0.042377353
117	0xbc4d15c0	-0.012517393
118	0xbd26faa0	-0.04076636
119	0x3d4c1898	0.049828142
120	0xbde7221e	-0.11285804
121	0xbc8c5c08	-0.017133728
122	0x3c88cae0	0.0166983
123	0xbd25a192	-0.04043729
124	0xbd343f2c	-0.044005558
125	0xbd4a1d18	-0.049344152
126	0x3dace3fa	0.084419206
127	0xbdaa3e3c	-0.083126515
128	0x3dd86ff8	0.10568231
129	0xbd8161de	-0.06317495
130	0xbd633fa5	-0.055480618
131	0x3d2747a4	0.040839806
132	0x3cd593b8	0.026071414
133	0x3dd2b6ca	0.102887705
134	0x3d7bb26c	0.061449453
135	0x3d23e96c	0.04001753
136	0xbcac27cc	-0.02101507
137	0x3beeb760	0.0072850436
138	0xbc58a550	-0.013223007
139	0xbd43dd6a	-0.04781858
140	0xbd7a9a14	-0.061182097
141	0xbdb19042	-0.08670093
142	0x3dda9e82	0.10674764
143	0x3de71b4e	0.11284505
144	0x3deaae4e	0.11459027
145	0xbd4c9dda	-0.049955226
146	0x3dea4662	0.11439206
147	0xbd7b04cd	-0.061283875
148	0x3d3d0f5c	0.046157226
149	0x3d3a3eb0	0.04546994
150	0xbdce0fb1	-0.10061587
151	0xbdc323bc	-0.095283
152	0x3b1e9740	0.0024199039
153	0x3bb814f0	0.0056177303
154	0xbbeea9e0	-0.0072834343
155	0xbd1c8350	-0.038211167
156	0x3d9b34aa	0.07578404
157	0xbd5d32b7	-0.054003444
158	0xbc9c9c9c	-0.019117646
159	0xbcc96e88	-0.024588838
160	0x391d3a00	0.00014994293
161	0xbd54c902	-0.05194951
162	0x3d8b6e9a	0.06808205
163	0xbd9e1904	-0.07719615
164	0xbd5a687a	-0.053322293
165	0x3da797ee	0.08183275
166	0x3d90bfc4	0.070678264
167	0x3c4bf1d0	0.012447789
168	0x3ddf5c62	0.109062925
169	0xbd37478e	-0.044745974
170	0x3d0a9a4c	0.033838555
171	0x3cb838b8	0.022487983
172	0xbd22cf8a	-0.039748706
173	0x3dbccfe4	0.092193395
174	0xbc1a75e8	-0.009427525
175	0x3dc4e176	0.09613316
176	0xbdc03ca5	-0.09386567
177	0x3c45fb30	0.012083814
178	0x3d8ca79c	0.068679065
179	0xbd1feb42	-0.03904272
180	0x3ddef460	0.108864546
181	0xbd2c8410	-0.042118132
182	0x3cf16078	0.029464945
183	0x3d66eba8	0.056377083
184	0xbbc82d40	-0.00610891
185	0xbd15cef4	-0.03657432
186	0x3c7f06a0	0.015565544
187	0xbdbb970c	-0.09159669
188	0x3de3b42c	0.111183494
189	0xbcded568	-0.02720137
190	0x3d57ef00	0.052718163
191	0x3cd9d988	0.026592985
192	0xbd447790	-0.047965586
193	0xbd66f8d6	-0.056389652
194	0x3d8a263c	0.06745574
195	0xbdae69bc	-0.08516261
196	0xbd077a8a	-0.033075847
197	0x3d965ffe	0.07342528
198	0x3dd36006	0.103210494
199	0xbd9d1270	-0.07669532
200	0xbcf162c0	-0.029466033
201	0x3da2b214	0.07944122
202	0xbcbbc330	-0.022920221
203	0x3d64e8e8	0.05588618
204	0xbdc83fd5	-0.097778
205	0xbb86d110	-0.0041142777
206	0xbdcbd47c	-0.099526376
207	0x3bcd6ab0	0.0062688217
208	0x3ce3d818	0.027813002
209	0x3dd746a0	0.105115175
210	0xbdb8bab4	-0.09019986
211	0xbd83391e	-0.064073786
212	0x3ccd52e8	0.025063947
213	0xbdd84e79	-0.105618425
214	0xbbd2e300	-0.006435752
215	0x3bdbb0a0	0.006704405
216	0x3be82130	0.0070840344
217	0x3ce058c8	0.027386084
218	0x3d9a5d34	0.07537308
219	0xbdec175d	-0.11527894
220	0xbd35656c	-0.044286177
221	0xbbbaf580	-0.0057055354
222	0xbde3b66e	-0.1111878
223	0xbdd26454	-0.10273042
224	0x3d4d59a4	0.050134316
225	0xbdaea368	-0.08527261
226	0xbc97e438	-0.01854144
227	0x3d34b5b8	0.044118613
228	0xbd7c1f11	-0.061553065
229	0x3de00a7a	0.10939498
230	0x3d93cdec	0.07217011
231	0xbd689d47	-0.056790616
232	0x3dcaf950	0.09910834
233	0x3db060da	0.08612223
234	0x3d57a478	0.052647084
235	0x3b15bbe0	0.0022847578
236	0x3de61472	0.112343684
237	0x3db4c140	0.08825922
238	0xbd4b1d68	-0.04958859
239	0x3dcc7112	0.09982504
240	0x3c7020b0	0.014656231
241	0x3a7f2280	0.0009732619
242	0x3dc48318	0.09595317
243	0x3dd8fa5e	0.10594629
244	0x3d137aec	0.0360059
245	0x3ce35fe8	0.027755693
246	0xbd02a08c	-0.03189139
247	0xbd459a94	-0.04824312
248	0xbb7d3440	-0.003863588
249	0x3d9468ea	0.07246573
250	0xbd5b31a4	-0.053514138
251	0xbdc01c02	-0.09380342
252	0x3cc46880	0.02397561
253	0xbd604ca1	-0.05476058
254	0xbd9507fc	-0.072769135
255	0x3db6a7a2	0.08918692

conv2.bias f4 [16]
0	0x3d4aa70c	0.049475715
1	0xbd5c7eb2	-0.053831764
2	0xbb14c4e0	-0.0022700354
3	0x3d4b2b30	0.049601734
4	0x3d353950	0.04424411
5	0x3d1599bc	0.036523566
6	0xbcbb8ddc	-0.022894792
7	0xbc9fb908	-0.01949741
8	0x3d9d4340	0.076788425
9	0xbd07aa34	-0.033121303
10	0xbcd2bc0e	-0.025724437
11	0x3d80c976	0.062884256
12	0x3c0ac4d8	0.008469783
13	0xbb834640	-0.004006177
14	0xba612980	-0.0008589253
15	0xbd46abfb	-0.048503857

conv2.weight f4 [16, 6, 5, 5]
0	0xbcd980d2	-0.026550684
1	0xbcdca738	-0.026935205
2	0xbd57cfc8	-0.05268839
3	0xba8e6e40	-0.0010866597
4	0x3d020324	0.031741276
5	0xbd62861f	-0.05530369
6	0x3d00eea4	0.031477585
7	0xbd004ac2	-0.031321295
8	0x3d8f02b4	0.069829375
9	0x3cd5e914	0.026112117
10	0x3cf72f8c	0.03017404
11	0x3c911d34	0.01771412
12	0xbc1a4738	-0.009416394
13	0xbb6342e0	-0.0034677312
14	0x3d9aab6c	0.075522274
15	0xbd10b77e	-0.03533124
16	0xbd15d56e	-0.036580496
17	0x3d72fa30	0.05932063
18	0xbbc8f860	-0.006133124
19	0x3d6da2c8	0.05801657
20	0x3cbfa610	0.023394614
21	0x3d73db88	0.059535533
22	0xbb9b1e50	-0.004733838
23	0x3ce9c614	0.028536834
24	0x3d870a82	0.06593801
25	0x3d4600a8	0.04834047
26	0xbaa35480	-0.0012461096
27	0x3cdcc7dc	0.02695077
28	0x3da71910	0.08159077
29	0xbd483909	-0.048882518
30	0xbba77a50	-0.0051110163
31	0x3b15f2a0	0.0022880211
32	0xbd9536a7	-0.07285815
33	0xbc94c328	-0.018159464
34	0x3c5e9e60	0.013587564
35	0xbd1352ed	-0.035967756
36	0x3d8c9dc8	0.06866032
37	0x3da52aec	0.08064827
38	0x3d872f64	0.06600836
39	0x3cb64098	0.022247598
40	0x3ccc3f00	0.024932384
41	0x3d1d1cb2	0.038357444
42	0xbd328d32	-0.043591686
43	0x3d174870	0.036934316
44	0x3cf44140	0.02981627
45	0x3cf0383c	0.02932369
46	0x3d843e6e	0.0645722
47	0x3c2d3798	0.010572337
48	0x3cefd1a4	0.02927477
49	0xbbcd06f0	-0.0062569305
50	0x3cc0972c	0.023509584
51	0x3d47b2d4	0.04875453
52	0x3bc4adb0	0.0060021505
53	0xbc71aee0	-0.014751166
54	0xbd03585a	-0.03206668
55	0xbd55dc6a	-0.052212156
56	0x3d29265c	0.041296348
57	0x3d17a56a	0.037022986
58	0x3d95c04a	0.07312067
59	0xbd9f9960	-0.07792926
60	0xbd8094e4	-0.06278399
61	0x3d9db370	0.077002406
62	0xbd14782f	-0.03624743
63	0x3b07d040	0.0020723492
64	0xbb0a40a0	-0.0021095648
65	0x3d377c04	0.044796005
66	0x3d89a344	0.067205936
67	0x3cd58ef4	0.026069142
68	0xbc7c4028	-0.015396155
69	0xbcde49a6	-0.027134728
70	0xbc78fe80	-0.015197396
71	0xbd908033	-0.07055702
72	0x3d5b3650	0.053518593
73	0x3d6d1fb8	0.057891577
74	0x3d0b7182	0.034043796
75	0xbbee1ce0	-0.0072666258
76	0xbb3258e0	-0.0027213618
77	0xbd983b8e	-0.07433234
78	0xbd124118	-0.03570661
79	0xbda1c24f	-0.078983895
80	0xbcf3c80a	-0.029758472
81	0xbd9e29d0	-0.07722819
82	0x3cfd9e78	0.030959353
83	0x3cb48f8c	0.022041105
84	0x3d5292d0	0.051409543
85	0xbd17b353	-0.03703625
86	0x3bbf2640	0.005833417
87	0x3d943ea6	0.07238512
88	0x3bba9f70	0.005695276
89	0xbd410785	-0.04712631
90	0x3d0c11c4	0.03419663
91	0xbc8d0fe8	-0.017219499
92	0x3d711040	0.058853388
93	0xbd68e306	-0.05685713
94	0x3d2fcf7c	0.042922482
95	0x3cd014c0	0.02540052
96	0xbd9c5652	-0.07633652
97	0x3c595b78	0.013266437
98	0xbc075648	-0.008260317
99	0xbc1ec240	-0.0096898675
100	0x36d54000	6.3553452e-06
101	0x3d28102a	0.04103104
102	0x3d04df6a	0.032439627
103	0xbc288a88	-0.010286935
104	0x3cd04070	0.025421351
105	0x3d946bb2	0.07247104
106	0xbd013403	-0.031543743
107	0x3cf0c7bc	0.029392116
108	0x3d08a774	0.03336282
109	0xbd8bccab	-0.06826147
110	0xbcbe8958	-0.02325885
111	0x3d2c2d4e	0.042035393
112	0x3c88c590	0.016695768
113	0x3d73b114	0.059495047
114	0xbd86003d	-0.06543014
115	0x3da4e1f4	0.0805091
116	0xbb325080	-0.0027208626
117	0x3cb2ea80	0.021840334
118	0x3cad8c8c	0.021185182
119	0xbc9becfc	-0.019033901
120	0xbd29d816	-0.04146584
121	0xbd760b46	-0.060069345
122	0xbcdecdb2	-0.027197693
123	0xbd38c072	-0.045105405
124	0x3d89ba0e	0.0672494
125	0x3bcf6fd0	0.0063304678
126	0xbd460a12	-0.048349448
127	0x3d4d90f0	0.05018705
128	0x3da68006	0.08129887
129	0x3cfc8420	0.03082472
130	0x3da568f2	0.08076657
131	0x3cda3ed8	0.026641294
132	0x3cf80110	0.030273944
133	0x3d8dd6b0	0.06925714
134	0xbbe9f330	-0.007139586
135	0xbccf130a	-0.025277633
136	0x3d86dcea	0.06585105
137	0x3d18079e	0.03711664
138	0xbd6bb44e	-0.057545
139	0x3d529aa8	0.051417023
140	0x3b201080	0.0024423897
141	0x3cd2d080	0.025734186
142	0x3bc5f9e0	0.0060417503
143	0x3d05ac02	0.032634743
144	0xbd13edde	-0.03611552
145	0x3d58a280	0.052889347
146	0x3d410cfc	0.047131523
147	0x3da201a4	0.07910469
148	0xbda6f4d1	-0.08152164
149	0x3bac0b10	0.005250342
150	0xbb672460	-0.0035269484
151	0xbd7b27e4	-0.06131734
152	0x3b8face0	0.004384622
153	0x3d9c2c22	0.07625605
154	0xbcc4df32	-0.024032209
155	0xbce0275c	-0.027362518
156	0xbcb969d8	-0.022633478
157	0x3d877938	0.066149175
158	0xbd163798	-0.036674112
159	0x3d9f3626	0.07774
160	0x3c2fcdc0	0.010730207
161	0x3d9d03ec	0.07666764
162	0xbd079623	-0.033102166
163	0xbd987cf4	-0.07445708
164	0xbca5eeca	-0.020255465
165	0xbda33fdc	-0.079711646
166	0xbb288740	-0.002571538
167	0xbc73a6e8	-0.0148713365
168	0xbd653724	-0.05596079
169	0xbd8aa26c	-0.06769261
170	0xbd2b9148	-0.041886598
171	0x3c4ad590	0.012380019
172	0x3d15a054	0.036529854
173	0x3c662638	0.014047198
174	0xbd3fa838	-0.046791285
175	0x3d9ea78a	0.07746799
176	0xbd8d5fc0	-0.069030285
177	0x3d91cad4	0.071187645
178	0xbd04d4c7	-0.032429483
179	0x3da17a96	0.078847095
180	0xb9b49100	-0.0003444031
181	0x3d18f698	0.037344545
182	0x3d649c18	0.055812925
183	0xbd958dd5	-0.07302443
184	0x3d19922e	0.037492923
185	0xba7e2200	-0.00096943974
186	0x3d8b3cda	0.06798716
187	0xbca619a8	-0.020275906
188	0xbd447b92	-0.04796941
189	0xbcb6697c	-0.022267096
190	0x3d04c0c8	0.032410413
191	0xbd97cefd	-0.07412527
192	0x3c87f274	0.016595103
193	0x3cb6b038	0.022300825
194	0xbd37a053	-0.04483063
195	0x3d9b8ad4	0.07594839
196	0x3d59affc	0.053146347
197	0x3d2b4012	0.04180915
198	0xbc7617b0	-0.015020296
199	0xbd6a84be	-0.0572555
200	0xbd3a93fb	-0.04555128
201	0x3d4d6c20	0.050151944
202	0xbd22accc	-0.039715573
203	0xbca2b530	-0.019861788
204	0x3cfc1e80	0.030776262
205	0xbd760bee	-0.06006997
206	0xbd4dc83b	-0.050239783
207	0x3d3839bc	0.044976935
208	0x3d549114	0.05189617
209	0xbcffc440	-0.031221509
210	0x3c9c470c	0.019076847
211	0x3c58b1b8	0.013225965
212	0xbc94c56c	-0.018160544
213	0xbda633cb	-0.081153475
214	0xbd6b792e	-0.057488613
215	0x3d3c5aa0	0.045984864
216	0x3c1a0f88	0.009403117
217	0x3b814680	0.003945172
218	0xbd5ef44f	-0.05443221
219	0x3d1630c8	0.036667615
220	0xbd428f60	-0.047500014
221	0xbcc2ecae	-0.023794498
222	0xbca91952	-0.020641956
223	0x3d95c698	0.073132694
224	0xbd612dbe	-0.054975264
225	0xbd9bf756	-0.07615535
226	0xbd911dd8	-0.0708577
227	0x3caa1170	0.020760268
228	0xbd80b142	-0.06283809
229	0x3da0d628	0.07853347
230	0xbcd00660	-0.025393665
231	0xbd6dad51	-0.058026616
232	0xbc3933b0	-0.011303827
233	0xbced73f8	-0.028985962
234	0xbd4ceb6b	-0.0500292
235	0x3d0c4382	0.034244068
236	0xbd3cdb8d	-0.046107817
237	0xbcb3ca68	-0.0219471
238	0x3d9fa8e4	0.07795885
239	0x3d843ca4	0.06456879
240	0xbced6694	-0.028979577
241	0x3d33d534	0.0439045
242	0xbda4aa5e	-0.080403075
243	0xbd3815bc	-0.044942603
244	0x3bb34150	0.0054704323
245	0x3d88c8b6	0.066789076
246	0xbc1844c8	-0.0092937425
247	0x3ca67a74	0.020322062
248	0x3a77ff80	0.0009460375
249	0xbcf98382	-0.030458216
250	0x3b604280	0.0034219325
251	0xbcb3cf00	-0.021949291
252	0xbb51eae0	-0.0032030866
253	0x3d689d64	0.056790724
254	0x3d85562a	0.06510575
255	0x3c9c1700	0.019053936

fc1.bias f4 [120]
0	0xbcbd21d7	-0.023087425
1	0x3a83a160	0.00100426
2	0xbcdcc4da	-0.026949335
3	0x3c3951a8	0.011310972
4	0x3cd65576	0.026163798
5	0x3ceaebfa	0.028676976
6	0x3c0449a8	0.008074202
7	0xbc9261dc	-0.017868929
8	0xbd40777b	-0.046988945
9	0x3d2da5f1	0.042394582
10	0x3d4a3aeb	0.049372595
11	0xbb709850	-0.003671188
12	0x3cfa22b6	0.03053413
13	0xbcceb49d	-0.025232607
14	0x3b938928	0.0045024343
15	0xbd456ae5	-0.048197646
16	0xbc8a9280	-0.01691556
17	0x3d2d9da5	0.04238667
18	0x3d168181	0.0367446
19	0xbc9bc1d7	-0.019013328
20	0xbc7a530c	-0.015278589
21	0xbb83b258	-0.004019063
22	0xbd0c8145	-0.03430297
23	0x3c5d4ba4	0.013506804
24	0x3d01a863	0.031654727
25	0x3c2a3720	0.010389119
26	0x3d1bfe95	0.038084585
27	0xbd29d426	-0.041462086
28	0xbc56d7f8	-0.013113014
29	0x3c742ddc	0.014903512
30	0xbcf714c0	-0.030161262
31	0xbbb07b00	-0.0053857565
32	0xbd3916c8	-0.04518774
33	0xbb5ddfd0	-0.0033855326
34	0x3c04edd8	0.008113347
35	0x3a1c2800	0.0005956888
36	0xbc83eb44	-0.016103394
37	0xbd35a800	-0.04434967
38	0x3c6fa574	0.014626849
39	0xbb747160	-0.0037299022
40	0xbc6d3bec	-0.0144796185
41	0x3badfec0	0.0053099096
42	0xbbeb0698	-0.007172417
43	0x3c34ac68	0.011027433
44	0x3bad2470	0.0052838847
45	0xbd49765a	-0.049185134
46	0xbbc430d0	-0.005987264
47	0x3cb9a596	0.022661965
48	0x3d46d629	0.048544083
49	0x3c3676e8	0.011136748
50	0xbd1a149d	-0.037617315
51	0x3cbcce5e	0.023047622
52	0xbce460a3	-0.027878111
53	0x3cf0aa62	0.02937812
54	0x3d150657	0.036383
55	0x3cc8630a	0.024461288
56	0x3cb7b3e2	0.022424642
57	0x3aede5a0	0.0018150099
58	0xbc8e8cd0	-0.017401129
59	0xbce46e7a	-0.02788471
60	0xbc788754	-0.0151689835
61	0xbcfae3cd	-0.030626202
62	0x3d2e0ef9	0.042494748
63	0xbd2ffe23	-0.042966973
64	0x3d46acc1	0.048504595
65	0xbc6c0980	-0.014406562
66	0x3d0da0a7	0.03457704
67	0x3ce4c95e	0.02792805
68	0x3c346cc0	0.011012256
69	0xbc22caac	-0.009936016
70	0xbbc99f40	-0.0061530173
71	0xbcd13af0	-0.025540799
72	0xbace7c60	-0.0015753619
73	0x3d2f3487	0.042774703
74	0xbd32ba43	-0.043634664
75	0x3d2211c9	0.039567742
76	0x3c0038f4	0.007826079
77	0xbd24a68b	-0.04019789
78	0x3d32fd91	0.04369885
79	0xbc1e6500	-0.009667635
80	0x3d36a939	0.044594977
81	0x3ca0dcc2	0.019636516
82	0x3d30ff3b	0.043212157
83	0xbd1cb3b5	-0.03825732
84	0xbca5448a	-0.020174284
85	0x3d3912a1	0.04518378
86	0xbd2f847d	-0.04285096
87	0x3d26b8cf	0.04070359
88	0x3cb19e12	0.02168182
89	0x3cbc2142	0.022965077
90	0xbbd5fd50	-0.0065304413
91	0xbccdc980	-0.025120497
92	0xbcf62307	-0.030046
93	0x3ca619c2	0.020275954
94	0x3d4a1e9f	0.04934561
95	0x3cf8d6ee	0.030375924
96	0xbbb61c90	-0.005557604
97	0xbb6f20d0	-0.0036488064
98	0xbc4c9bf8	-0.012488358
99	0x3d38c849	0.04511288
100	0xbd261140	-0.040543795
101	0x3d29eb77	0.041484322
102	0x3cb7029a	0.022340108
103	0xbc1d356c	-0.009595256
104	0x3c2ea200	0.010658741
105	0x3d103451	0.035206143
106	0xbc8b3246	-0.016991746
107	0xbce6659d	-0.028124625
108	0x3d3c3e69	0.045957956
109	0xbc9cde33	-0.019148922
110	0xbbee1250	-0.0072653666
111	0x3d0e429f	0.034731504
112	0x3d3d7775	0.0462565
113	0x3c2cebd8	0.010554276
114	0x38921c00	6.967038e-05
115	0x3cb02392	0.021501336
116	0xbd1fad16	-0.038983427
117	0x3be6aa98	0.0070393793
118	0x3d35fc59	0.04443011
119	0xbd4b57f3	-0.04964442

fc1.weight f4 [120, 400]
0	0xbd032e78	-0.032026738
1	0x3d26f141	0.04075742
2	0x3cb3f5d2	0.021967802
3	0x3c1fab78	0.009745471
4	0xbd083236	-0.03325101
5	0xbcde9543	-0.027170783
6	0xbc621c2c	-0.013800662
7	0xbc941c64	-0.018079944
8	0x3b6fabe0	0.0036570951
9	0x3d24b5d3	0.040212464
10	0x3d3e0361	0.04638994
11	0xbc0b930c	-0.008518945
12	0x3cfb85a2	0.03070337
13	0xbc4a8a58	-0.012362085
14	0xbba2e6d0	-0.0049713627
15	0xbcf1240a	-0.02943613
16	0x3c4838e8	0.012220599
17	0xbc9bd8b0	-0.019024223
18	0x3bcec918	0.0063105933
19	0x3d0ea84b	0.034828465
20	0xbbf76840	-0.0075502694
21	0x3d46ec21	0.048565034
22	0xbcc804ed	-0.024416411
23	0xbd124780	-0.03571272
24	0xbd18fd20	-0.037350774
25	0xbd13b752	-0.0360635
26	0x3d00d52b	0.031453293
27	0x3d43d0d9	0.047806595
28	0xbd231192	-0.03981168
29	0xbcb860fa	-0.02250718
30	0x3cd3d172	0.025856707
31	0x3bd6b680	0.0065525174
32	0x3cb1e7f2	0.021717045
33	0x3d22adc3	0.039716493
34	0xbca740bd	-0.020416612
35	0x3cce8632	0.025210474
36	0xbd09d145	-0.03364684
37	0xbcd81d27	-0.026381088
38	0xbd2e1602	-0.042501457
39	0xbbcb8380	-0.0062107444
40	0xbd26f15d	-0.040757526
41	0xbccdd473	-0.025125718
42	0xbd494075	-0.049133737
43	0xbcc3ba8d	-0.023892665
44	0xbd20580e	-0.039146475
45	0xbc798020	-0.015228301
46	0xbc75f608	-0.015012272
47	0xbcb73213	-0.022362744
48	0xbd36dca3	-0.04464401
49	0xbc407020	-0.011745483
50	0x3d10fb39	0.035395835
51	0xbd1fcd72	-0.039014287
52	0x3cb65ac2	0.022260074
53	0x3d098f7b	0.0335841
54	0xbc4cf3a8	-0.012509264
55	0xbd0304c5	-0.03198697
56	0xbd081460	-0.033222556
57	0xbd4b2330	-0.049594104
58	0xbc5578c0	-0.013029277
59	0x3ca67e12	0.020323787
60	0x3bbf0800	0.005829811
61	0xbcec155a	-0.028818775
62	0xbd34923f	-0.044084784
63	0xbb7777d0	-0.0037760623
64	0xbd2ad12b	-0.041703384
65	0x3d404471	0.04694027
66	0xbc56290c	-0.01307131
67	0x3ccfbf9a	0.025359917
68	0x3d3241b9	0.04351971
69	0x3c721e24	0.014777694
70	0x3b26ee30	0.002547156
71	0x3a2bda00	0.0006555617
72	0xbd46b0ab	-0.048508327
73	0x3cc250c2	0.023720149
74	0xbce33bba	-0.02773844
75	0xbb84d718	-0.0040539615
76	0x3d012933	0.03153343
77	0xbc81ddd4	-0.015852846
78	0x3d1b8139	0.037965033
79	0xbd4c1f80	-0.04983473
80	0x3d3e5a5d	0.046472896
81	0x3d218715	0.039435465
82	0x3d36f1b9	0.04466412
83	0xbca0df3a	-0.019637693
84	0xbd21f226	-0.03953757
85	0xbc3f60b4	-0.011680771
86	0x3d053635	0.0325224
87	0x3cffbb02	0.031217102
88	0xbd312d57	-0.04325613
89	0xbcf53f7d	-0.0299375
90	0xbc49fb0c	-0.012327921
91	0xbc3ab338	-0.011395268
92	0xbc8b36b4	-0.016993858
93	0x3cfe22e6	0.0310225
94	0x3d1a0201	0.037599567
95	0x3c97eb0e	0.0185447
96	0x3d239ebb	0.0399463
97	0xbcffb8d7	-0.031216068
98	0xbcc8384d	-0.024440909
99	0x3d0448d1	0.032296006
100	0x3c3706e8	0.01117108
101	0xbcfb27c3	-0.030658608
102	0xbcd68a50	-0.026189
103	0x3ae93000	0.0017790794
104	0xbd2cbcad	-0.042172123
105	0xbd4122c7	-0.047152307
106	0xbc483354	-0.012219269
107	0xb9b99980	-0.00035400316
108	0x3b042930	0.0020166151
109	0xbcf560aa	-0.02995332
110	0xbbc64070	-0.006050162
111	0xbce1ef77	-0.027580006
112	0xbb932a58	-0.0044911318
113	0xbca844ca	-0.020540614
114	0xbca86743	-0.020557052
115	0xbd26e3ae	-0.040744476
116	0x3b5fa760	0.0034126863
117	0x3c9048d2	0.017612848
118	0xbcec608d	-0.028854633
119	0x3d148f13	0.03626926
120	0x3c4d2ed4	0.012523372
121	0xbc5e3598	-0.013562582
122	0x3c9f8996	0.019474786
123	0xbd08466d	-0.03327029
124	0xbd311fa8	-0.04324308
125	0x3d0d3bfd	0.034481037
126	0xbc221e14	-0.0098948665
127	0x3c901296	0.017586987
128	0xbd2fdaca	-0.042933263
129	0x3d4abfd1	0.049499337
130	0xbd1b76f2	-0.037955232
131	0x3d086373	0.033297967
132	0xbc012734	-0.007882882
133	0x3d3021d1	0.043001
134	0xbd37520f	-0.04475599
135	0xbc1654e8	-0.009175517
136	0x39191d00	0.0001460202
137	0xbc495fb4	-0.012290884
138	0x3b1dfc50	0.0024106689
139	0x3ce927b2	0.028461311
140	0x3d3073ad	0.043079067
141	0x3d039743	0.032126676
142	0xbd02ee52	-0.03196556
143	0x3b306380	0.0026914775
144	0x3ce5eb2a	0.028066237
145	0xbc35880c	-0.011079799
146	0xbcd4393a	-0.025906194
147	0x3c6d22c4	0.014473621
148	0x3d4b1a95	0.049585897
149	0xbc287e58	-0.010284029
150	0x3d092ef9	0.033492062
151	0x3cc65c32	0.024213884
152	0xbce8636a	-0.028367717
153	0x3c509854	0.01273163
154	0x3d3c4d49	0.045972142
155	0xbb05ad80	-0.0020397604
156	0xbc59ed54	-0.013301212
157	0x3d2d8267	0.04236069
158	0x3d3f3d45	0.04668929
159	0x3d3b4321	0.045718316
160	0x3c2224d8	0.00989648
161	0xbb842a98	-0.004033398
162	0x3b1d4ed0	0.0024003275
163	0x3cad4ac6	0.021153819
164	0xbcfbe163	-0.030747121
165	0xbcf06bf3	-0.02934835
166	0xbc8c65b4	-0.01713834
167	0x3d249c99	0.040188406
168	0xbd386422	-0.04501737
169	0xbbe6ea70	-0.00704699
170	0xbcfb8ded	-0.030707324
171	0x3c504ac4	0.012713138
172	0x3d0521ab	0.03250281
173	0x3d43ad8d	0.047772933
174	0xbd30787d	-0.043083657
175	0xbbe01c40	-0.006839305
176	0xbcffe28a	-0.031235952
177	0x3d120eb9	0.035658572
178	0xbb07cd80	-0.0020721853
179	0xbcfdf670	-0.0310013
180	0xbd1285f6	-0.035772286
181	0xbd09b66c	-0.033621237
182	0x3ce1dc6a	0.027570922
183	0xbced9fda	-0.029006887
184	0xbd140e88	-0.03614667
185	0x3c19e9ac	0.009394091
186	0x3d37ed41	0.044903997
187	0x3d3bcd7d	0.045850266
188	0x3cbbb252	0.022912178
189	0x3cd2e452	0.025743637
190	0x3d49d309	0.049273524
191	0x3d434621	0.047674302
192	0xbd15fb28	-0.036616474
193	0x3d085113	0.033280443
194	0x3d2d6179	0.042329285
195	0x3d3d4703	0.0462103
196	0xbd1f436e	-0.038882665
197	0xbc9333b0	-0.017968982
198	0x3b8292e8	0.0039847977
199	0x3c128c0c	0.008944523
200	0x3cb1f3c2	0.021722678
201	0x3d38301b	0.044967752
202	0x3c823692	0.015895162
203	0xbc49ca94	-0.012316365
204	0xbd25bc75	-0.04046293
205	0xbd10c18d	-0.035340834
206	0xbc369874	-0.011144746
207	0xbd10c2d5	-0.035342056
208	0xbcf469c7	-0.029835595
209	0xbca2b69a	-0.019862462
210	0x3c77d844	0.015127245
211	0x3cfce7fe	0.030872341
212	0xbd2a4b0e	-0.041575484
213	0x3d4321f9	0.04763982
214	0xbc890f7a	-0.016731013
215	0xbd3163c0	-0.04330802
216	0x3d3cf98d	0.046136428
217	0xbcdb60ca	-0.026779551
218	0xbc4fb4a8	-0.012677349
219	0xbd227402	-0.039661415
220	0xb99bda80	-0.000297267
221	0x3cf57aee	0.029965844
222	0xbcf9f33a	-0.030511487
223	0xbd06a6c5	-0.032873888
224	0xbc81e41c	-0.015855841
225	0x3d22f677	0.03978583
226	0xbc4b7eac	-0.012420338
227	0xbd24f5a0	-0.04027331
228	0x3c486c6c	0.012232881
229	0xbd4c85da	-0.04993234
230	0xbcf6043d	-0.030031318
231	0x3d46205b	0.0483707
232	0xbc02ca68	-0.007982828
233	0xb973a500	-0.00023235753
234	0x3a92cf60	0.0011200719
235	0xbc93fda6	-0.018065285
236	0x3bd665c0	0.0065428913
237	0x3cb59d26	0.02216966
238	0x3d345187	0.044023063
239	0xbd37a203	-0.04483224
240	0xbd3ad55b	-0.045613628
241	0xbd316327	-0.04330745
242	0xbcf7f39a	-0.030267525
243	0x3c06a16c	0.008217197
244	0xbd23656d	-0.03989165
245	0xbd31036a	-0.043216147
246	0xbd4c21e5	-0.04983701
247	0xbbb036a8	-0.0053776093
248	0x3d053b19	0.032527063
249	0x3cfcf60e	0.030879047
250	0xbbdb8750	-0.00669948
251	0x3c66a6d4	0.014077861
252	0xbd433b9d	-0.047664274
253	0x3d0c83d1	0.034305397
254	0x3c083580	0.008313537
255	0x3d445bf9	0.047939274

fc2.bias f4 [84]
0	0x3c81c6a4	0.01584179
1	0xbd436b21	-0.047709588
2	0x3d12d960	0.035851836
3	0xbd75b2dc	-0.059985027
4	0x3d0aa964	0.03385295
5	0xbcb2de10	-0.021834403
6	0xbce323a0	-0.027726948
7	0xbd4f78cb	-0.050652307
8	0xbd1778c2	-0.036980398
9	0xbcc91324	-0.02454526
10	0xbc5c13e0	-0.013432473
11	0x3d8b58f6	0.06804077
12	0xbd47b9cc	-0.048761174
13	0x3caececc	0.021338843
14	0xbd2eef65	-0.042708773
15	0xbbeca360	-0.0072216243
16	0xbd7837ce	-0.060600094
17	0x3d1f6bf0	0.038921297
18	0xbcbd9c50	-0.023145825
19	0xbd12a683	-0.03580333
20	0xbd4099df	-0.047021743
21	0x3d75dcb0	0.060024917
22	0x3ce8679c	0.028369717
23	0xbd2fb1db	-0.042894226
24	0x3d9e1834	0.0771946
25	0xbc512d80	-0.012767196
26	0x3d979b70	0.07402694
27	0x3d3dde2c	0.046354458
28	0xbd8247f2	-0.06361379
29	0x3d939cac	0.07207617
30	0x3da22414	0.079170376
31	0x3d313868	0.043266684
32	0xbdb3d667	-0.087811284
33	0xbd98af50	-0.07455313
34	0xbdbae0df	-0.09124922
35	0x3d8bde7e	0.068295464
36	0xbd9042d2	-0.07043995
37	0x3d84a64c	0.06477031
38	0x3cc3783c	0.023861043
39	0x3d80ded8	0.06292504
40	0x3aeeb000	0.0018210411
41	0x3d1e157c	0.038594708
42	0xbda0940b	-0.07840737
43	0x3d02a3a2	0.031894334
44	0xbda1f13c	-0.0790734
45	0xbc82dc6c	-0.015974246
46	0x3d5f66c4	0.054541364
47	0xbcdb379c	-0.026759915
48	0x3d6daa5c	0.058023795
49	0x3c99cdf8	0.018774971
50	0xbdb0b88f	-0.08628952
51	0xbcd140a4	-0.025543518
52	0x3db932ac	0.09042868
53	0x3d668ab0	0.056284606
54	0x3d1eb3c8	0.03874567
55	0x3affe800	0.0019524097
56	0x3ccde26c	0.02513238
57	0x3da91a22	0.082569376
58	0x3d4a20f8	0.049347848
59	0xbbb9d1e0	-0.005670771
60	0x3d4f6efc	0.050642952
61	0x3d5b2834	0.053505138
62	0x3d7539f4	0.05986972
63	0xbd98a9f8	-0.07454294
64	0xbdad3892	-0.084580556
65	0x3d8b8018	0.06811541
66	0xbd697392	-0.056994982
67	0x3c80f82c	0.015743338
68	0x3d34459c	0.044011697
69	0x3d9aa6a8	0.075513184
70	0x3d8038ce	0.06260835
71	0x3c0e0c28	0.00866989
72	0x3d122178	0.03567645
73	0xbd9c82d0	-0.07642138
74	0x3daeae16	0.08529298
75	0xbda0234c	-0.07819232
76	0xbcefc9e4	-0.029271074
77	0x3db689e6	0.08913021
78	0x3c5c8a00	0.013460636
79	0xbd9f352c	-0.077738136
80	0x3d33d61c	0.043905362
81	0xbc143bb8	-0.009047441
82	0xbda392ce	-0.07986985
83	0xbd3e2f6c	-0.046431944

fc2.weight f4 [84, 120]
0	0xbd1c3dce	-0.03814488
1	0xbb9ef570	-0.004851036
2	0xbd3cd491	-0.046101157
3	0x3cdfe524	0.027330942
4	0x3da063b8	0.0783152
5	0xbd3def8e	-0.046371035
6	0x3d98476c	0.07435498
7	0x3db5ebe4	0.08882883
8	0x3a075f00	0.00051639974
9	0xbd6470e8	-0.05577174
10	0xbd3a3c7a	-0.04546783
11	0xbda37ecc	-0.07983169
12	0x3c234920	0.009966165
13	0xbd0936e0	-0.0334996
14	0xbd4a3e43	-0.049375784
15	0x3d9601d2	0.07324566
16	0xbd0ec373	-0.034854364
17	0x3d913c08	0.07091528
18	0xbd2a1973	-0.041528177
19	0x3db778a0	0.08958554
20	0xbcaed5e0	-0.021342218
21	0xbc563fc8	-0.01307673
22	0x3cf76d88	0.030203596
23	0x3d7be5b0	0.061498344
24	0xbd993562	-0.07480885
25	0xbdb9d578	-0.09073919
26	0x3c56d320	0.01311186
27	0x3d12d3f0	0.03584665
28	0x3cb8a530	0.022539705
29	0xbd47a24a	-0.048738755
30	0xbda2ef9c	-0.07955858
31	0xbd62f92b	-0.055413406
32	0x3d7178c4	0.05895306
33	0x3ca31bd0	0.019910723
34	0xbbf44760	-0.0074547976
35	0xbd8b3ff5	-0.06799308
36	0xbd65a662	-0.05606688
37	0xbdad1828	-0.08451873
38	0x3d0516ba	0.032492377
39	0xbd80346e	-0.0626
40	0xbd7db967	-0.06194439
41	0xbc992528	-0.018694475
42	0x3c2f2168	0.010689117
43	0xbd63a172	-0.055573888
44	0xbd68bee1	-0.05682266
45	0x3d6ca374	0.05777307
46	0x3d9e06a0	0.07716107
47	0xbd8cb5fd	-0.06870649
48	0x3da04bb2	0.07826938
49	0xbd92bb75	-0.07164661
50	0x3da8585a	0.08219977
51	0xbd55d2ac	-0.052202865
52	0xbd88365b	-0.066509925
53	0x3cbc0d88	0.022955671
54	0x3db89eb2	0.09014644
55	0x3d462034	0.048370555
56	0xbd82b66d	-0.06382451
57	0x3b8a4980	0.0042201877
58	0x3d83d038	0.06436199
59	0xbc8c2958	-0.017109558
60	0x3cf8b600	0.030360222
61	0xbd35fdc8	-0.044431478
62	0x3d1e8528	0.038701206
63	0xbdab1e9b	-0.08355447
64	0x3cc5bc80	0.024137735
65	0x3cac5d7c	0.02104067
66	0xbd1cbf14	-0.038268164
67	0x3cc0d7f8	0.023540482
68	0xbd18f0eb	-0.037339132
69	0x3cf728e8	0.030170873
70	0xbd454307	-0.048159625
71	0xbd8f8756	-0.07008235
72	0x3d4b868c	0.04968886
73	0x3d0a7a44	0.033808008
74	0xbdaa917c	-0.0832853
75	0xbd4cdaee	-0.050013475
76	0xbce7a760	-0.028278053
77	0xbdb9e725	-0.090772904
78	0x3d389780	0.045066357
79	0x3d712434	0.058872417
80	0x3d0f9114	0.035050467
81	0x3d9c051e	0.076181635
82	0x3d40c0dc	0.047058925
83	0x3d8e218c	0.06939992
84	0xbb8ca1a0	-0.004291728
85	0x3d6c151c	0.05763732
86	0xbdb465c8	-0.08808476
87	0x3d463270	0.048387945
88	0x3b9027c0	0.00439927
89	0x3b9b5820	0.00474073
90	0xbd38d5d8	-0.045125812
91	0x3db2e3c2	0.087348476
92	0xbd96d170	-0.07364166
93	0x3d6fa3fc	0.058505997
94	0x3ac7da80	0.0015247613
95	0x3db3cc10	0.08779156
96	0x3dac9af6	0.08427994
97	0xbda19b45	-0.078909434
98	0x3db23b24	0.087026864
99	0xbd9f9c0d	-0.07793436
100	0xbc8ea950	-0.017414719
101	0x3d9932d0	0.07480395
102	0xbcd4774c	-0.025935791
103	0x3d35b000	0.0443573
104	0xba8c22c0	-0.0010691509
105	0xbd737ed8	-0.05944714
106	0x3d497de4	0.049192324
107	0x3d8b44e8	0.06800252
108	0x3cb89768	0.022533134
109	0x3c8d7dec	0.017271958
110	0xbcfeb4ba	-0.031092037
111	0x3d9f818e	0.077883825
112	0x3c2af5e8	0.010434605
113	0x3c320640	0.010865748
114	0x3c4480b8	0.01199358
115	0x3d946be6	0.072471425
116	0xbbfb3760	-0.0076665133
117	0x3dbab496	0.09116475
118	0x3daf7710	0.08567631
119	0xbc8957dc	-0.016765527
120	0xbb7e0720	-0.003876157
121	0xbd6aa7e5	-0.057289023
122	0x3d615e18	0.055021375
123	0x3b60d9c0	0.0034309477
124	0xbc8d917c	-0.017281286
125	0xbcd7e574	-0.026354529
126	0xbdba184b	-0.09086665
127	0xbd8c587e	-0.06852816
128	0x3d3b3ddc	0.04571329
129	0x3d08a012	0.03335578
130	0x3d6a6ccc	0.057232663
131	0xbd06fd2f	-0.0329563
132	0xbc218140	-0.009857476
133	0xbcc3a480	-0.02388215
134	0xbd34fdcd	-0.044187356
135	0x3d19476c	0.03742163
136	0xbd864d72	-0.0655774
137	0xbdb0f6cb	-0.08640822
138	0xbdafa71f	-0.08576798
139	0xbd846e9e	-0.06466411
140	0xbd109e10	-0.03530699
141	0xbd9aa2e4	-0.075506
142	0xbd33493c	-0.043771014
143	0x3c2bad90	0.010478392
144	0x3c369790	0.011144534
145	0xbd9ee9ba	-0.077594236
146	0xbdb00c7d	-0.08596132
147	0xbd7ed76a	-0.062217154
148	0x3d82489a	0.06361504
149	0xbcdde044	-0.027084477
150	0xbd816c1d	-0.06319449
151	0xbd5e62e3	-0.054293524
152	0x3d185438	0.037189692
153	0x3d84fe8c	0.064938635
154	0x3d3ba7d0	0.045814335
155	0x3d0a1526	0.033711575
156	0xbc889174	-0.01667092
157	0x3d9f1126	0.07766943
158	0x396ff600	0.00022884458
159	0xbdb5a27c	-0.08868882
160	0x3d420694	0.047369555
161	0x3c415920	0.011801034
162	0xbdaad404	-0.0834122
163	0xbc200ac0	-0.009768188
164	0x3daf3452	0.08554901
165	0x3d40ee38	0.047102183
166	0x3caad0fc	0.020851605
167	0x3d75e3ac	0.060031578
168	0x3db9b366	0.09067421
169	0x3d4869dc	0.04892908
170	0x3d8480ac	0.06469855
171	0x3d48b788	0.049003154
172	0x3d9dce5e	0.07705377
173	0x3d2a5d94	0.04159315
174	0xba8210c0	-0.0009923205
175	0xbdb737a3	-0.08946159
176	0x3da2bf2c	0.079466194
177	0x3d80b204	0.06283954
178	0x3db2f17e	0.08737467
179	0x3c2baae0	0.0104777515
180	0xbd2b2098	-0.04177913
181	0x3c17c838	0.009264044
182	0x3caa8a8c	0.020818017
183	0xbd855bb8	-0.065116346
184	0xbd89f22e	-0.06735645
185	0x3d2f890c	0.042855307
186	0x3d551830	0.05202502
187	0xbd5ca424	-0.053867474
188	0xbd7b38f7	-0.061333623
189	0x3a829cc0	0.0009964928
190	0xbd1dbd62	-0.038510688
191	0x3d66ec38	0.05637762
192	0xbcb699cc	-0.022290133
193	0xbda83f1b	-0.082151614
194	0xbc952af8	-0.018208966
195	0x3cdf1a74	0.027234294
196	0x3c477a08	0.012175091
197	0x3d50e6b4	0.051001266
198	0xbd9ec1f3	-0.07751837
199	0x3c947ba4	0.018125363
200	0xbdb10548	-0.086435854
201	0xbcb133e4	-0.021631189
202	0x3d522614	0.051305845
203	0xbd3c7b44	-0.046015993
204	0x3cb2747c	0.02178406
205	0xbd74e0b8	-0.05978462
206	0x3cc78bd4	0.024358667
207	0xbd8019f5	-0.06254951
208	0x3d8fef36	0.07028048
209	0x3d3e9adc	0.046534404
210	0xbd204de5	-0.039136786
211	0x3d5b46ec	0.053534433
212	0x3db0bf58	0.08630246
213	0xbda92a8d	-0.08260069
214	0xbca70178	-0.020386443
215	0xbce2e0c0	-0.02769506
216	0xbbc74320	-0.006081
217	0x3d73de7c	0.05953835
218	0x3daedb9c	0.08537981
219	0x3d8316e6	0.06400852
220	0x3d8e4c0e	0.069481
221	0x3db4bf66	0.08825569
222	0xbda0257c	-0.078196496
223	0xbc70b490	-0.014691487
224	0x3c1e1428	0.00964836
225	0xbd2842a3	-0.041079175
226	0x3d8c8080	0.06860447
227	0xbd6c55a9	-0.05769888
228	0xbc56a938	-0.013101868
229	0x3cfc6694	0.030810632
230	0x3d91d022	0.07119776
231	0xbd6f1a9c	-0.058374986
232	0x3d09343c	0.03349708
233	0xbdac1409	-0.08402259
234	0x3d6cd094	0.057816103
235	0xbcb05b5c	-0.021527939
236	0x3da19b5c	0.078909606
237	0x3d718224	0.058962002
238	0xbd83aff2	-0.06430043
239	0x3c9a54bc	0.018839233
240	0x3d9ce65e	0.076611266
241	0x3da8c700	0.08241081
242	0xbc96e434	-0.018419363
243	0x3d6c2350	0.057650864
244	0xbda41c65	-0.08013228
245	0x3d83f08a	0.064423636
246	0x3da6aaa4	0.08138016
247	0xbce6efb8	-0.028190479
248	0x3a323c00	0.0006799102
249	0x3db69a64	0.089161664
250	0x3daac6b6	0.08338682
251	0xbd331143	-0.043717634
252	0x3c832674	0.016009547
253	0xbd771bbe	-0.06032919
254	0xbd12f7e5	-0.035880942
255	0xbcce0268	-0.025147632

fc3.bias f4 [10]
0	0xbdc4e54b	-0.09614047
1	0xbd1fd7c2	-0.039024122
2	0xbdb9d5d9	-0.09073991
3	0x3db10c67	0.08644944
4	0x3c8f6cf4	0.017508008
5	0x3dd52ab3	0.10408535
6	0x3d2cfd12	0.042233534
7	0xbd88aa87	-0.066731505
8	0xbaa1c880	-0.0012343079
9	0x3d93cbd1	0.07216609

fc3.weight f4 [10, 84]
0	0x3cc6c3d4	0.0242633
1	0x3c3ef900	0.011656046
2	0x3d99d323	0.07510974
3	0xbdc55c5f	-0.09636759
4	0xbd664f06	-0.056227706
5	0x3d96bcfd	0.073602654
6	0xbcba23c8	-0.02272214
7	0xbc701000	-0.014652252
8	0x3d81a007	0.06329351
9	0x3dd48a85	0.10377983
10	0xba7a4400	-0.0009546876
11	0xbd39e212	-0.045381613
12	0x3b144080	0.0022621453
13	0xbd85caf0	-0.06532848
14	0x3d37a8e2	0.044838794
15	0xbcfbddf4	-0.030745484
16	0xbca4c9e4	-0.0201158
17	0x3d09166a	0.03346864
18	0x3d40a62a	0.047033466
19	0xbddd21d5	-0.107974686
20	0x3dc02ad7	0.09383171
21	0x3d39b3da	0.045337535
22	0x3dddad53	0.108240746
23	0x3d740c8e	0.059582286
24	0x3d34b0ae	0.044113807
25	0xbd4cf56a	-0.050038733
26	0xbb415cc0	-0.0029504746
27	0x3da26805	0.079299964
28	0x3ccb5e5c	0.024825267
29	0xbd1b1f5c	-0.037871704
30	0x3d74496e	0.05964034
31	0x3ddced85	0.10787491
32	0xbcf92c2c	-0.03041657
33	0xbdcceb5f	-0.10005831
34	0xbdb3a89b	-0.08772393
35	0xbcba5a00	-0.022747993
36	0x3cfe6eec	0.031058751
37	0xbcb04320	-0.021516383
38	0xbdb995fc	-0.090618104
39	0x3b2cc340	0.0026361495
40	0x3d8babbd	0.06819866
41	0x3d0ae2ee	0.033907823
42	0xbc63aeb8	-0.013896637
43	0xbdba78c1	-0.09105063
44	0xbdcf11ec	-0.1011084
45	0x3a070180	0.0005150065
46	0xbddcb15d	-0.10776017
47	0x3db5474d	0.0885149
48	0x3db8201f	0.089905016
49	0x3d7fbbb2	0.06243486
50	0x3d959281	0.07303334
51	0x3d5efc52	0.05443985
52	0xbd0658b8	-0.032799453
53	0xbd85796c	-0.065173
54	0x3d11a87a	0.035561062
55	0xbd8cf5a0	-0.06882787
56	0x3ddad8f9	0.106859155
57	0xba9c84c0	-0.0011941418
58	0xbd680ff4	-0.05665584
59	0x3ddf311f	0.10898041
60	0xbd3181ee	-0.0433368
61	0xbd848d81	-0.06472302
62	0x3c4e02c8	0.012573905
63	0xbd51d1a0	-0.051225305
64	0xbd18ebd4	-0.03733428
65	0xbdd82d6a	-0.10555537
66	0xbd908fc5	-0.07058672
67	0x3db3cae5	0.087789334
68	0x3dc4002b	0.095703445
69	0x3ca54aac	0.020177208
70	0x3d821077	0.06350797
71	0x3d6970b6	0.056992255
72	0xbcde9a60	-0.027173221
73	0x3d52f696	0.051504694
74	0xbd6e7c28	-0.058223873
75	0xbb1331e0	-0.0022460148
76	0xbd318a38	-0.043344706
77	0xbaf43b40	-0.001863338
78	0x3dae1263	0.08499601
79	0x3dad7c5b	0.084709845
80	0xbd925f16	-0.071470425
81	0x3cb21cac	0.021742187
82	0x3d9c49cb	0.076312624
83	0xbda9564d	-0.08268414
84	0xbd0735ea	-0.0330104
85	0x3cd21d24	0.025648661
86	0xbc50eb58	-0.012751423
87	0x3da24b87	0.07924562
88	0x3d9ff931	0.07811201
89	0x3d2a58e6	0.041588686
90	0x3dd2dfd9	0.10296602
91	0x3ce57094	0.028007783
92	0x3cabc914	0.020969905
93	0xbd30d2f4	-0.04316993
94	0xbd1298b4	-0.03579016
95	0xbc1ea830	-0.009683654
96	0x3db44327	0.08801871
97	0xbda01a08	-0.07817465
98	0x3d40d74e	0.04708033
99	0x3db2b4d7	0.08725899
100	0x3d0bb422	0.034107335
101	0x3d54d4b2	0.051960655
102	0xbaa48500	-0.0012551844
103	0xbd5b4d9d	-0.053540815
104	0x3c1f88d8	0.009737216
105	0xbdaf8b52	-0.08571495
106	0x3d758fa6	0.059951447
107	0x3d707866	0.05870857
108	0xbcc07dd4	-0.0234975
109	0xbdcd4d87	-0.10024553
110	0x3d80a1c3	0.062808536
111	0x3c243800	0.010023117
112	0xbcce4110	-0.025177509
113	0x3caa4524	0.020784922
114	0xbc957aa4	-0.018246956
115	0x39132600	0.00014033169
116	0x3c754898	0.014970921
117	0x3d94e709	0.07270629
118	0xbb577e20	-0.0032881573
119	0x3d219846	0.03945186
120	0xbb5ab8c0	-0.003337428
121	0x3dc4bbfb	0.09606167
122	0x3d5428b2	0.051796623
123	0x3d2f6dc2	0.042829283
124	0x3d847a65	0.064686574
125	0xbda5f245	-0.0810285
126	0xbb915b30	-0.004435919
127	0xbd11e50a	-0.03561882
128	0xbd603fcc	-0.05474834
129	0x3dba5e31	0.09099997
130	0xbcf01c40	-0.029310346
131	0x3d9a5e3f	0.07537507
132	0xbc4d26e0	-0.012521476
133	0xbd534f51	-0.051589314
134	0xbd94dfc6	-0.07269244
135	0x3d982251	0.0742842
136	0x3d89e459	0.06733007
137	0xbcc0ccd8	-0.023535177
138	0x3d54b0e2	0.0519265
139	0x3d7526aa	0.059851326
140	0x3d0efb9e	0.03490793
141	0x3d4acff2	0.04951472
142	0x3da00e59	0.078152366
143	0x3dd5089f	0.10402035
144	0x3d56bbda	0.052425243
145	0xbd864841	-0.0655675
146	0x3d962329	0.07330925
147	0x3dce1ec9	0.100644656
148	0xbd8681bc	-0.065677136
149	0x3d823b6b	0.06358989
150	0xbd4903ab	-0.049075764
151	0xbcb90614	-0.022585906
152	0xbd23079a	-0.03980217
153	0xbd9175f3	-0.07102575
154	0xbbc34960	-0.0059596747
155	0xbba7d690	-0.0051220134
156	0xbd776f9f	-0.060409185
157	0xbc2c1c98	-0.010504864
158	0xbc301510	-0.010747209
159	0xbcae3d00	-0.021269321
160	0xbca749e4	-0.020420976
161	0xbd83e6b8	-0.064404905
162	0x3d59de3a	0.053190447
163	0xbd08b0b2	-0.033371635
164	0x3d84176b	0.06449779
165	0x3c41b850	0.011823729
166	0x3cd15c4c	0.025556706
167	0xbd892ba0	-0.06697774
168	0xbc5da4a0	-0.013528019
169	0xbbb72eb0	-0.0055902824
170	0xbc6ae8b8	-0.014337711
171	0x3d56ebba	0.0524709
172	0xbdd822cc	-0.10553512
173	0x3ca816bc	0.020518653
174	0xb9389200	-0.00017601997
175	0x3d2a0c5e	0.0415157
176	0xbd5b8724	-0.053595677
177	0xbdc41f80	-0.09576321
178	0xbdde2b19	-0.10848064
179	0xbc1c47c8	-0.009538598
180	0xbd04b36a	-0.032397665
181	0xbd8244f4	-0.06360808
182	0x3d59e076	0.05319258
183	0x3da543b3	0.08069553
184	0x3beb5430	0.007181667
185	0x3da3067b	0.079602204
186	0xbcacbda4	-0.021086521
187	0xbdbb88dc	-0.09156963
188	0x3c721590	0.014775649
189	0x3d80a14b	0.06280764
190	0xbcaf297c	-0.021382086
191	0xbdcc1f9e	-0.09966968
192	0xbd931ae2	-0.07182862
193	0xbbd27700	-0.0064228773
194	0x3d323e72	0.043516584
195	0xbdbc33da	-0.091895774
196	0x3ca740ec	0.0204167
197	0x3dddd4b7	0.10831588
198	0x3c90b34c	0.01766362
199	0x3c84a60c	0.016192459
200	0xbc6bca48	-0.014391489
201	0xbcc7eee0	-0.024405897
202	0x3dcbaf6f	0.09945571
203	0xbc070978	-0.008242004
204	0x3d2a6c92	0.041607447
205	0xbd7cba21	-0.061700944
206	0x3d9838a9	0.07432682
207	0x3da298e7	0.0793932
208	0x39005600	0.00012239069
209	0xbc920a4c	-0.017827176
210	0x3da6f7cb	0.081527315
211	0x3d264a7a	0.04059837
212	0xbd426838	-0.047462672
213	0x3ca7488c	0.020420335
214	0xbdc5d297	-0.096593075
215	0xbd02b2c4	-0.031908765
216	0x3cd3f364	0.025872894
217	0xbcc758b4	-0.02433429
218	0x3d5a40e2	0.053284533
219	0xbdb1660c	-0.08662042
220	0x3ca3c434	0.019991018
221	0x3d95aa97	0.07307928
222	0x3d4b8526	0.049687527
223	0x3d3b3d4a	0.045712747
224	0x3d1b73fa	0.0379524
225	0xbcb1c384	-0.021699674
226	0xbcbc7394	-0.02300433
227	0x3db11775	0.08647052
228	0xbdaf97eb	-0.08573898
229	0xbd1460b0	-0.03622502
230	0xbd86a4ee	-0.065744266
231	0xbda11036	-0.0786442
232	0xbda8fea7	-0.08251696
233	0xbdb564d4	-0.08857122
234	0x3d4d9ad6	0.05019649
235	0xbd74a5fb	-0.059728604
236	0x3dd9fe9d	0.10644267
237	0x3d11a27e	0.035555355
238	0x3dbea01f	0.093078844
239	0x3b3de000	0.0028972626
240	0xbd2f0b74	-0.042735532
241	0xbdb114a7	-0.08646517
242	0xbd84237a	-0.06452079
243	0xbc27f0d8	-0.010250293
244	0x3ce25e3c	0.027632825
245	0x3c185200	0.009296894
246	0xbd4afa24	-0.04955496
247	0x3c15e7d0	0.009149507
248	0xbdc66e66	-0.096890256
249	0xbdc94fc7	-0.098296694
250	0xbdaae381	-0.08344174
251	0xbdaafd30	-0.08349073
252	0x3b1ff260	0.0024405941
253	0xbd0e08f0	-0.034676492
254	0xbc8fbebc	-0.017547004
255	0xbddd2a30	-0.10799062
